checkpoint/best5.pt (torch, 11100 bytes, 10 tensors)

lstm.weight_ih_l0 f4 [32, 34]
0.1359726 -0.026596485 -0.23670927 -0.13378035 0.19628061 -0.1551055 -0.14326882 0.06884058
0.002378017 -0.04675067 -0.118477516 -0.28383687 -0.22659034 0.15682651 0.028318413 -0.0694226
0.25904185 0.1247196 0.15452702 -0.19781199 0.16962841 -0.16233565 0.04344637 -0.068381585
-0.06888185 -0.23789828 -0.15424964 -0.0014893458 -0.486845 0.4611337 -0.3069994 0.09155884
-0.60581005 0.3614254 -0.030978903 0.0033741698 0.28350475 -0.21216618 0.069101766 -0.010201718
0.2770768 0.0079435855 0.37534446 -0.32260472 0.033175245 -0.3509027 0.31915846 0.027135612
0.009415222 0.2364367 0.19922613 -0.025929296 0.43015006 0.092571504 0.031879548 0.2472043
-0.027146028 -0.11892406 -0.03440053 -0.3182031 -0.052628666 -0.16991353 -0.31896982 0.05309572
0.008413591 -0.29611087 -0.32649547 0.007025876 -0.23176245 0.26579574 0.08302531 -0.22435875
0.21669324 -0.35913044 -0.16617861 -0.055381503 0.25116938 0.1736182 0.19503108 -0.27440298
-0.44836894 0.1924542 0.016204344 0.31376225 0.105303384 0.28272352 0.12767622 -0.2675746
-0.36566702 0.15110219 0.15572265 -0.047566317 -0.21736498 -0.17835613 0.15349714 0.38365656
0.07587689 -0.13922584 0.3793956 0.18343425 0.32434797 0.29274118 0.016465178 -0.3125605
0.4175021 0.029957088 -0.1375807 -0.27129984 0.21365727 -0.30434632 -0.09184045 0.11131061
0.12601063 -0.25650877 0.27231202 0.044460934 0.0034923311 -0.17202961 -0.21930231 0.07214972
0.39662287 0.044763118 0.033313144 -0.14779927 0.013699796 -0.081142716 -0.049413852 0.06372761
0.005837291 -0.47268283 0.0028873042 -0.004121736 -0.22907116 -0.2908342 0.23153707 -0.25660083
-0.26094848 0.22167377 -0.14127721 -0.30332378 -0.3733466 0.07765512 -0.28574693 -0.4282554
0.07266881 0.14152953 -0.083858624 0.25357193 -0.2963583 -0.020549146 -0.11880144 0.32710695
-0.1941733 0.19625655 0.35529593 0.20810814 -0.13380921 -0.15799339 -0.090867974 0.14420119
-0.3651416 -0.05637648 0.25659314 0.20192447 0.13368155 -0.19965109 0.36619875 -0.1306901
-0.0024639603 0.41218585 -0.22855465 -0.01684695 -0.15431583 -0.13574448 -0.40799996 0.050232176
0.17771837 -0.06801981 -0.3154107 0.24503921 -0.16148154 0.046640854 -0.20890465 0.05689019
-0.12690526 -0.018393537 -0.055765636 0.11537828 -0.020416822 0.36206082 0.15385568 -0.122620896
0.27238593 -0.13140203 -0.23149356 0.08225394 -0.05245183 0.07000774 -0.21041536 0.28103858
0.18464573 -0.3654478 -0.038530573 0.052127708 -0.059396062 -0.44093373 0.12665822 0.20359989
0.07177425 0.020738555 0.1758309 -0.09300343 0.28051594 -0.34016663 0.012047657 -0.36572522
-0.028402004 -0.07346131 0.48986208 0.18989454 0.25739512 -0.26511616 0.25024188 -0.14737745
-0.21693249 -0.13340302 0.46196088 0.21773665 0.3447642 -0.033024095 0.27147943 -0.33048317
0.30525187 -0.13380155 0.37394273 -0.20449547 -0.22446683 -0.10664657 0.11920301 0.3564209
-0.08853216 -0.11867198 0.25914043 -0.23039138 0.2344492 0.11643838 -0.17135426 0.33007067
0.20529673 0.13677025 0.24800515 0.380147 0.2923848 -0.26225454 -0.35876378 -0.21995136
00000000: 673c 0b3e dfe0 d9bc ea63 72be b7fd 08be
00000010: c9fd 483e fad3 1ebe 10b5 12be 4afc 8c3d
00000020: 81d8 1b3b a17d 3fbd 57a4 f2bd 1153 91be
00000030: 4c07 68be 2197 203e 04fc e73c 702d 8ebd
00000040: 22a1 843e fd6c ff3d 553c 1e3e 3a8f 4abe
00000050: 12b3 2d3e 513b 26be d2f4 313d a50b 8cbd
00000060: ed11 8dbd 9b9b 73be 9ef3 1dbe 2736 c3ba
00000070: bf43 f9be b719 ec3e 062f 9dbe 3383 bb3d
00000080: 5e16 1bbf c00c b93e 78c7 fdbc 2d21 5d3b
00000090: 8927 913e 1742 59be 3a85 8d3d 1b25 27bc
000000a0: 03dd 8d3e d025 023c 262d c03e 722c a5be
000000b0: c4e2 073d 85a9 b3be bd68 a33e 814b de3c
000000c0: 4e42 1a3c 761c 723e ef01 4c3e ad69 d4bc
000000d0: a13c dc3e 2196 bd3d 2194 023d 2023 7d3e
000000e0: 5961 debc 758e f3bd 92e7 0cbd 84eb a2be
000000f0: 2891 57bd d0fd 2dbe 0350 a3be e67a 593d
00000100: 29d9 093c d89b 97be 6a2a a7be 5239 e63b
00000110: 2353 6dbe 6116 883e 2c09 aa3d 4dbe 65be
00000120: d5e4 5d3e f2df b7be ba2a 2abe b7d7 62bd
00000130: 4699 803e f8c8 313e 3ab6 473e 8c7e 8cbe
00000140: 9d90 e5be b712 453e f9be 843c 72a5 a03e
00000150: 4da9 d73d 23c1 903e 8ebd 023e 8aff 88be
00000160: b538 bbbe 88ba 1a3e c275 1f3e e6d4 42bd
00000170: ed94 5ebe fda2 36be 5b2e 1d3e a26e c43e
00000180: 5865 9b3d 3891 0ebe 2440 c23e 30d6 3b3e
00000190: f010 a63e 2ce2 953e fbe1 863c ee07 a0be
000001a0: d6c2 d53e 9168 f53c f4e1 0cbe d0e7 8abe
000001b0: f9c8 5a3e 48d3 9bbe d916 bcbd d1f6 e33d
000001c0: ee08 013e 1e55 83be 7b6c 8b3e ab1c 363d
000001d0: 98df 643b 8828 30be c990 60be 3bc3 933d
000001e0: 2712 cb3e 8859 373d 5d73 083d b158 17be
000001f0: 1c75 603c 272e a6bd 2e66 4abd 9f83 823d
00000200: bf46 bf3b 7c03 f2be ed38 3d3b a10f 87bb
00000210: a191 6abe 38e8 94be 0e18 6d3e 2f61 83be
00000220: 0a9b 85be 73fe 623e f9aa 10be 414d 9bbe
00000230: 4927 bfbe a609 9f3d 6c4d 92be 4b44 dbbe
00000240: 63d3 943d 1eed 103e 12be abbd 2ed4 813e
00000250: 46bc 97be af56 a8bc 2b4e f3bd 907a a73e
00000260: 5ed5 46be 7af7 483e 59e9 b53e 4d1a 553e
00000270: 4805 09be 05c9 21be fd18 babd 7aa9 133e
00000280: d7f3 babe 06eb 66bd 2d60 833e 4ac5 4e3e
00000290: d1e3 083e 5671 4cbe 677e bb3e a0d3 05be
000002a0: 657a 21bb 060a d33e 3b0a 6abe 9d02 8abc
000002b0: f804 1ebe 9a00 0bbe 5fe5 d0be 41c0 4d3d
000002c0: cefb 353e f84d 8bbd 837d a1be 8feb 7a3e
000002d0: 6b5b 25be 7b0a 3f3d 1aeb 55be b005 693d
000002e0: 74f3 01be 0bae 96bc 826a 64bd 734b ec3d
000002f0: 2e41 a7bc 0960 b93e 588c 1d3e aa20 fbbd
00000300: 2b76 8b3e 418e 06be a60c 6dbe c174 a83d
00000310: bbd7 56bd 3860 8f3d 2077 57be 4ae4 8f3e
00000320: c513 3d3e f91b bbbe 3cd2 1dbd dd83 553d
00000330: 4949 73bd 11c2 e1be b1b2 013e 7d7c 503e
00000340: 61fe 923d e7e3 a93c 040d 343e 9578 bebd
00000350: c99f 8f3e 522a aebe 8963 453c 5640 bbbe
00000360: 52ab e8bc e272 96bd 34cf fa3e b773 423e
00000370: 4bc9 833e 4ebd 87be b41f 803e 1dea 16be
00000380: 8d23 5ebe cd9a 08be 2386 ec3e 5bf6 5e3e
00000390: ef84 b03e 4644 07bd 5aff 8a3e 1735 a9be
000003a0: f949 9c3e 4603 09be 6c75 bf3e 4367 51be
000003b0: a2da 65be 8469 dabd b520 f43d cd7c b63e
000003c0: 5950 b5bd 4c0a f3bd 0eae 843e b8eb 6bbe
000003d0: 7313 703e 3f77 ee3d 7e77 2fbe 06ff a83e
000003e0: 4e39 523e 800d 0c3e 10f5 7d3e a1a2 c23e
000003f0: 76b3 953e 3a46 86be e3af b7be ee3a 61be

lstm.weight_hh_l0 f4 [32, 8]
-0.18262275 -0.14071064 -0.19711748 -0.47442308 -0.105426915 0.26654208 0.53766173 0.2441648
-0.02113587 -0.4877755 -0.034252197 -0.46825525 0.1441414 0.3659188 0.10369239 -0.0886627
-0.61888754 0.0076787313 -0.3023231 -0.22505088 -0.23002324 0.06742112 0.08777928 0.15586203
-0.18667048 -0.043937165 -0.46442446 -0.39519504 0.37257445 0.19352724 0.13494937 0.32208362
-0.15146162 -0.40497604 -0.54135203 -0.03379174 0.3143023 0.3497518 -0.25764263 -0.00080727495
-0.29039654 0.06644336 -0.011961781 -0.21519351 -0.29257596 -0.03505921 -0.13592507 -0.2733662
-0.3993483 -0.39159113 -0.48544177 -0.44650427 0.42319402 0.46692494 0.08876038 -0.12279483
-0.009502011 -0.06834832 -0.21409224 -0.2659299 0.37546855 0.33271503 -0.025163373 0.09365208
0.09367635 -0.39764857 -0.07111386 -0.050804533 -0.029964266 0.51520413 0.40469715 -0.19356261
0.13240635 -0.5377599 -0.42320356 -0.137704 0.26503363 -0.083079875 0.102389164 0.039202157
-0.5715063 0.20179103 0.06310422 0.13859195 0.4359122 0.25027964 -0.20541567 0.1320932
-0.14300491 -0.42316854 -0.11963248 0.1359723 -0.15715571 -0.03387777 0.21459766 -0.20744428
-0.31676173 -0.16295715 -0.13160925 -0.24305525 -0.09353394 0.52662283 0.24856246 -0.03636596
-0.0057854545 0.071407035 0.25556096 -0.025004473 -0.35079786 -0.01876407 0.1832202 0.23598163
0.474202 -0.10549458 -0.2432159 -0.2233197 0.42452773 0.20172393 -0.2035751 0.41306376
0.15964241 -0.18953359 -0.22498465 -0.10317397 0.07673193 0.32895517 0.15275465 -0.26900548
0.40023002 0.20804738 0.48105866 0.3833283 0.17538004 -0.2070901 0.116431296 0.0065931445
0.33026978 0.06380019 -0.07555965 0.025927316 0.00088642654 0.015274363 0.1858904 -0.34992838
-0.074963555 0.050612807 0.20992436 -0.035438336 0.05783725 0.07802824 -0.03968966 -0.06069199
0.27960968 0.23718496 0.3000959 0.2191972 0.15577328 0.07388698 0.0062054484 -0.07351344
-0.2905558 0.08450494 -0.09390207 -0.0023216945 0.113680385 0.13861527 -0.27512005 0.103763804
-0.35559812 -0.36718646 0.11339674 0.06682087 0.35585722 -0.2831476 -0.2429052 -0.035874866
-0.36926523 -0.5340925 0.23396398 -0.30163983 -0.1464907 0.021679703 -0.3188911 -0.09400442
0.12546101 -0.010521263 -0.16357365 -0.43740204 0.08785363 0.08681991 0.118553095 0.3585598
-0.33695346 -0.004668752 -0.28551108 -0.17843781 0.1052278 0.3441956 0.20731077 0.14345421
0.062810324 -0.4568505 0.09410121 -0.506843 0.0983444 0.35490605 0.04690226 -0.0630584
0.053420283 0.2066143 -0.24666812 -0.07893654 -0.090712935 0.23958455 -0.39457777 -0.04540146
-0.25083554 0.0692474 0.03572479 -0.02659316 -0.09753386 0.341978 0.13635276 0.4510432
-0.028104918 -0.4704274 0.14720055 0.011214327 -0.2059429 0.30617046 0.08334417 0.42634666
0.14773537 -0.3035594 -0.20567589 0.022781027 0.13681881 0.20576833 -0.2846271 0.08232493
0.15256111 -0.48169705 -0.16321088 -0.21563642 0.29804415 -0.021865044 0.18287553 -0.15337719
-0.46881574 0.3081765 0.25315064 -0.018829292 0.23777367 0.059468947 0.089948624 0.11453275
00000000: 7501 3bbe 7316 10be 2ad9 49be 95e7 f2be
00000010: 11ea d7bd 3478 883e 33a4 093f 5606 7a3e
00000020: 2225 adbc b6bd f9be 084c 0cbd 27bf efbe
00000030: ce99 133e b559 bb3e ad5c d43d ca94 b5bd
00000040: 6a6f 1ebf de9d fb3b 18ca 9abe bd73 66be
00000050: 368b 6bbe 1614 8a3d a0c5 b33d 4c9a 1f3e
00000060: 8c26 3fbe 75f7 33bd 0bc9 edbe 0157 cabe
00000070: 14c2 be3e 012c 463e 2b30 0a3e 25e8 a43e
00000080: c118 1bbe 0559 cfbe 0c96 0abf 3569 0abd
00000090: 3bec a03e ab12 b33e bce9 83be 4e9f 53ba
000000a0: dbae 94be 7513 883d 59fb 43bc b05b 5cbe
000000b0: 84cc 95be 3f9a 0fbd f12f 0bbe a8f6 8bbe
000000c0: 6177 ccbe a27e c8be d38b f8be 359c e4be
000000d0: e3ac d83e c910 ef3e 01c8 b53d db7b fbbd
000000e0: 53ae 1bbc 34fa 8bbd ff3a 5bbe f727 88be
000000f0: 6a3d c03e a059 aa3e 6b23 cebc a9cc bf3d
00000100: 63d9 bf3d 9898 cbbe 25a4 91bd 6a18 50bd
00000110: 9f77 f5bc 6be4 033f 7734 cf3e 4735 46be
00000120: 8895 073e a2aa 09bf 23ae d8be 4702 0dbe
00000130: 7db2 873e c825 aabd 69b1 d13d 7192 203d
00000140: 3d4e 12bf 4fa2 4e3e c93c 813d 0ceb 0d3e
00000150: e22f df3e a724 803e 7c58 52be 7143 073e
00000160: e16f 12be 8ca9 d8be e001 f5bd 533c 0b3e
00000170: 6ded 20be 6bc3 0abd 7dbf 5b3e 466c 54be
00000180: 982e a2be 3dde 26be 93c4 06be 7ae3 78be
00000190: b98e bfbd c1d0 063f 2887 7e3e 79f4 14bd
000001a0: e993 bdbb da3d 923d e3d8 823e 2ed6 ccbc
000001b0: c79b b3be 1bb7 99bc 139e 3b3e 2ba5 713e
000001c0: 9bca f23e 8b0d d8bd 970d 79be ebad 64be
000001d0: b35b d93e b890 4e3e fe75 50be 187d d33e
000001e0: 4d79 233e 1815 42be 6062 66be e04c d3bd
000001f0: a125 9d3d d06c a83e b76b 1c3e 16bb 89be
00000200: f3ea cc3e 5f0a 553e 524d f63e 9b43 c43e
00000210: d396 333e 6d0f 54be 8873 ee3d 4e0b d83b
00000220: 1f19 a93e ada9 823d 05bf 9abd 8665 d43c
00000230: 145f 683a 5241 7a3c 0e5a 3e3e d029 b3be
00000240: 7e86 99bd 604f 4f3d 69f6 563e ca27 11bd
00000250: c1e6 6c3d 45cd 9f3d a091 22bd 2a98 78bd
00000260: 0029 8f3e 9de0 723e 2ba6 993e 3b75 603e
00000270: 0883 1f3e 0f52 973d 1357 cb3b 378e 96bd
00000280: bbc3 94be ed10 ad3d ba4f c0bd 9227 18bb
00000290: 43d1 e83d 29f1 0d3e 89dc 8cbe 1e82 d43d
000002a0: f510 b6be ddff bbbe 8d3c e83d 61d9 883d
000002b0: eb32 b63e b9f8 90be 24bc 78be 86f1 12bd
000002c0: 5510 bdbe 49ba 08bf 4194 6f3e 8970 9abe
000002d0: a801 16be a299 b13c b245 a3be 6485 c0bd
000002e0: da78 003e 6061 2cbc da7f 27be 29f3 dfbe
000002f0: 9bec b33d a3ce b13d f7cb f23d 2695 b73e
00000300: 2a85 acbe 55fc 98bb 822e 92be 67b8 36be
00000310: ac81 d73d 683a b03e 4649 543e a9e5 123e
00000320: b3a2 803d 4fe8 e9be 23b8 c03d 76c0 01bf
00000330: ca68 c93d 3fb6 b53e 961c 403d c324 81bd
00000340: 3acf 5a3d b392 533e 9196 7cbe 7ba9 a1bd
00000350: b4c7 b9bd a755 753e 1906 cabe e2f6 39bd
00000360: 846d 80be 95d1 8d3d 2854 123d e6d9 d9bc
00000370: d5bf c7bd be17 af3e 0fa0 0b3e 22ef e63e
00000380: 493c e6bc dcdb f0be bebb 163e 4cbc 373c
00000390: b2e2 52be 60c2 9c3e 59b0 aa3d 1c4a da3e
000003a0: f147 173e 236c 9bbe b39c 52be 479f ba3c
000003b0: 3b1a 0c3e efb4 523e a5ba 91be f999 a83d
000003c0: fb38 1c3e ffa0 f6be c120 27be cbcf 5cbe
000003d0: 3e99 983e 521e b3bc b943 3b3e e90e 1dbe
000003e0: 9e08 f0be 4fc9 9d3e f69c 813e e33f 9abc
000003f0: f17a 733e b695 733d fc36 b83d 2590 ea3d

lstm.bias_ih_l0 f4 [32]
-0.17286272 0.22491431 0.065956816 -0.105470054 -0.009837319 0.1782236 -0.14525324 0.31390506
0.09073553 0.01147542 0.37934148 0.45535696 -0.080995195 0.2136937 0.4369055 -0.16664581
-0.22435084 -0.1318325 -0.10822885 -0.3850387 0.15422247 -0.019929899 -0.012338994 0.20447625
-0.07117406 0.29733482 0.16501766 -0.07761239 0.25628233 -0.032214366 0.16678986 -0.223228
00000000: ed02 31be f04f 663e 5e14 873d af00 d8bd
00000010: b52c 21bc 3f80 363e 44bd 14be 2ab8 a03e
00000020: 8dd3 b93d 6603 3c3c 0c39 c23e 8c24 e93e
00000030: cfe0 a5bd 85d2 5a3e 14b2 df3e 33a5 2abe
00000040: 3abc 65be 19ff 06be 16a7 ddbd cb23 c5be
00000050: 7fec 1d3e 0744 a3bc 7e29 4abc 3962 513e
00000060: b5c3 91bd 453c 983e 64fa 283e 3ff3 9ebd
00000070: 7037 833e 36f3 03bd f6ca 2a3e e195 64be

lstm.bias_hh_l0 f4 [32]
-0.15299715 0.19791576 0.24902163 -0.088487305 0.1727206 0.30606592 0.35133836 0.38585067
0.15997617 0.33121833 -0.09962432 0.22486845 -0.24085721 -0.13509937 -0.15227601 0.058779463
-0.15067565 0.019805595 -0.119262576 0.12187432 0.103680216 -0.11264771 0.30437577 0.38614148
0.30437165 -0.09636459 -0.3010007 0.51177186 0.28512323 0.24547832 0.5685889 -0.19101669
00000000: 49ab 1cbe 6eaa 4a3e 87ff 7e3e d538 b5bd
00000010: abdd 303e acb4 9c3e 9fe2 b33e 388e c53e
00000020: cbd0 233e 7395 a93e d607 ccbd ea43 663e
00000030: 46a3 76be 7d57 0abe 3eee 1bbe bcc2 703d
00000040: b84a 1abe 583f a23c f03f f4bd 3e99 f93d
00000050: 4b56 d43d d8b3 e6bd 24d7 9b3e 56b4 c53e
00000060: 9ad6 9b3e cc5a c5bd c41c 9abe 7b03 033f
00000070: acfb 913e ab5e 7b3e 0b8f 113f e199 43be

lstm.weight_ih_l1 f4 [32, 8]
0.08912444 -0.36527428 -0.38930663 -0.56262124 0.28539506 0.4115148 0.24122316 0.46545362
-0.32900622 -0.4295932 -0.06424027 -0.3884681 -0.123830654 0.15020515 -0.29946637 0.32473123
-0.4097906 -0.056536954 -0.09374079 0.08861081 -0.16043569 -0.3761487 -0.17760243 -0.22534952
-0.33654556 -0.23766431 0.22493373 -0.38061857 0.32407692 0.028944103 0.20560436 0.020684471
-0.027431132 -0.40456772 -0.04142294 -0.047153722 0.20406854 0.33815098 -0.14839482 -0.06305566
0.16786051 -0.011352601 -0.0476569 0.14131008 0.21125895 -0.20262478 -0.3166705 -0.40389076
0.27219114 -0.16639198 -0.35699654 -0.39448026 -0.13240136 -0.14296173 0.24414109 0.4679085
-0.002566174 -0.37375823 0.13185805 0.25004396 0.3527977 -0.19543035 0.15226129 0.1572228
-0.101790845 -0.03388032 -0.3147333 -0.53833234 0.15117235 0.16871336 0.059087556 0.14338641
-0.05667154 -0.004852547 -0.17241268 -0.5027616 0.03491189 0.3628481 0.112448305 -0.14612114
-0.25565615 -0.17551513 0.17594299 0.35039783 -0.052821297 -0.06127198 -0.012531705 0.2189371
-0.11685523 -0.07632002 -0.41612044 -0.2644485 0.31215653 0.0020551072 0.21991932 -0.29702038
-0.049090497 -0.27633485 -0.43513623 -0.4089014 0.25175261 0.17681773 -0.30069098 -0.045085702
-0.20256732 -0.11274807 -0.2666035 -0.00765945 -0.11839284 0.21828526 -0.100654215 0.23806472
-0.124264196 -0.1741284 0.20839088 -0.24836361 0.29962918 -0.09344732 0.086994216 0.40030643
0.1016438 -0.31658164 -0.08896085 -0.33233428 -0.061186943 -0.021165779 -0.022821523 0.21161544
-0.24179144 -0.4583486 0.3013698 -0.022419736 -0.048506517 -0.06469301 0.43901962 0.110184185
0.09408635 -0.45420986 -0.003935129 -0.19678746 0.03275224 0.2813774 0.0007729089 0.28962034
0.078704916 -0.17363146 0.1146444 0.03561214 0.27269572 -0.096349455 -0.18434572 0.006424597
0.25750446 -0.06178575 0.44657817 -0.13442364 -0.4387765 0.1335186 0.053438336 -0.31879175
-0.2121073 -0.13150902 -0.432775 0.08280378 0.17671767 0.0065874844 -0.19507894 0.387523
0.11399496 0.024995897 -0.21907239 -0.5721522 -0.07073417 0.17317818 -0.17725296 0.21452382
0.09894429 0.3031483 0.024218665 0.37976637 -0.23895998 0.13503306 -0.6182821 -0.3251763
0.07544077 -0.34941173 0.52036095 -0.341723 -0.42611682 -0.032754656 0.14013712 -0.23718174
0.0760064 -0.39955476 -0.104309045 -0.3497814 0.29894835 0.3313131 0.5885674 -0.07276516
-0.38665304 -0.47461057 -0.393697 -0.29497826 0.19599032 -0.20602967 -0.08977014 0.1968822
-0.20605285 0.072732165 -0.055440474 -0.12909228 0.06058456 -0.27968428 0.10312434 -0.16723755
0.05465708 -0.28430983 0.056827314 -0.26268047 0.037498154 0.18834192 -0.3640398 -0.12494041
-0.4822452 -0.2703718 -0.10384908 -0.10013752 -0.24451958 0.17994991 -0.27970195 -0.19515702
0.2515794 0.01626516 0.39121705 0.1979005 0.094081335 0.14434545 -0.20487516 -0.3942486
-0.03838229 -0.33549207 -0.31335706 -0.21073048 0.35767365 -0.0219045 0.6279228 0.19108918
-0.46092632 0.1492594 -0.100029886 -0.00913742 0.06627778 0.21822074 -0.44915974 -0.10262145
00000000: e086 b63d 3b05 bbbe 3353 c7be f207 10bf
00000010: 4d1f 923e 11b2 d23e 3403 773e f04f ee3e
00000020: 8173 a8be a4f3 dbbe 6790 83bd 4ae5 c6be
00000030: ed9a fdbd 61cf 193e a853 99be 2c43 a63e
00000040: 13d0 d1be 4b93 67bd 2cfb bfbd 9679 b53d
00000050: 4149 24be 9096 c0be 69dd 35be 06c2 66be
00000060: b34f acbe 465e 73be 0755 663e 70e0 c2be
00000070: 69ed a53e 2f1c ed3c f389 523e 7b72 a93c
00000080: 41b7 e0bc 8023 cfbe 1aab 29bd 4324 41bd
00000090: 58f7 503e 2022 ad3e d0f4 17be 5323 81bd
000000a0: a0e3 2b3e 4300 3abc e233 43bd 97b3 103e
000000b0: 4454 583e df7c 4fbe a322 a2be c5ca cebe
000000c0: a35c 8b3e a962 2abe 40c8 b6be 51f9 c9be
000000d0: 3994 07be 8f64 12be 1f00 7a3e b491 ef3e
000000e0: 412d 28bb 3d5d bfbe cc05 073e c305 803e
000000f0: e6a1 b43e e51e 48be 62ea 1b3e 04ff 203e
00000100: b877 d0bd 17c6 0abd b924 a1be 26d0 09bf
00000110: edcc 1a3e 32c3 2c3e cb05 723d e3d3 123e
00000120: 6b20 68bd 1d02 9fbb f38c 30be fcb4 00bf
00000130: c5ff 0e3d 3ac7 b93e 4c4b e63d c8a0 15be
00000140: 5de5 82be 3dba 33be 662a 343e 5867 b33e
00000150: 255b 58bd 54f8 7abd c851 4dbc 0c31 603e
00000160: cb51 efbd ac4d 9cbd bd0d d5be cb65 87be
00000170: fbd2 9f3e faae 063b 8832 613e 0e13 98be
00000180: 1e13 49bd c37b 8dbe 2dca debe 865b d1be
00000190: b8e5 803e b50f 353e 2bf4 99be c9ab 38bd
000001a0: cf6d 4fbe 76e8 e6bd 4180 88be 20fc fabb
000001b0: f277 f2bd 2c86 5f3e cc23 cebd 3dc7 733e
000001c0: 3a7e febd b74e 32be 6b64 553e 0853 7ebe
000001d0: ff68 993e 4f61 bfbd 062a b23d f7f4 cc3e
000001e0: a02a d03d fd16 a2be 1b31 b6bd b827 aabe
000001f0: 299f 7abd db63 adbc 34f4 babc b8b1 583e
00000200: 2d98 77be abac eabe 244d 9a3e 98a9 b7bc
00000210: c5ae 46bd c57d 84bd 2ec7 e03e 3fa8 e13d
00000220: 58b0 c03d 328e e8be 41f2 80bb a782 49be
00000230: 3627 063d b310 903e 0a9d 4a3a 1e49 943e
00000240: 0b30 a13d 72cc 31be afca ea3d 09de 113d
00000250: c69e 8b3e dd52 c5bd 20c5 3cbe 6d85 d23b
00000260: a0d7 833e 0e13 7dbd e5a5 e43e 5aa6 09be
00000270: 50a7 e0be 1ab9 083e 28e2 5a3d ac38 a3be
00000280: a832 59be 4daa 06be af94 ddbe 0795 a93d
00000290: 7af5 343e d3db d73b c6c2 47be 6a69 c63e
000002a0: 3176 e93d 32c4 cc3c 8354 60be 9178 12bf
000002b0: 14dd 90bd 9f55 313e cd81 35be 22ac 5b3e
000002c0: 4ea3 ca3d 4136 9b3e 3966 c63c bd70 c23e
000002d0: edb1 74be 1b46 0a3e bc47 1ebf 827d a6be
000002e0: b180 9a3d 18e6 b2be 6036 053f 51f6 aebe
000002f0: fc2b dabe bf29 06bd 1b80 0f3e c5df 72be
00000300: 3ea9 9b3d 7192 ccbe fb9f d5bd 8c16 b3be
00000310: c20f 993e dfa1 a93e 5aac 163f e605 95bd
00000320: 63f7 c5be 2800 f3be a792 c9be 6407 97be
00000330: b0b1 483e 71f9 52be 68d9 b7bd 7d9b 493e
00000340: 85ff 52be 9af4 943d 8d15 63bd c430 04be
00000350: 8427 783d c732 8fbe db32 d33d 5240 2bbe
00000360: 1ae0 5f3d 0f91 91be c2c3 683d 0e7e 86be
00000370: aa97 193d b4dc 403e 6d63 babe c2e0 ffbd
00000380: d8e8 f6be 2c6e 8abe d4ae d4bd e614 cdbd
00000390: 5763 7abe ca44 383e 1835 8fbe 3ed7 47be
000003a0: 04cf 803e 833e 853c 9a4d c83e 6ea6 4a3e
000003b0: b7ad c03d 4bcf 133e cbca 51be f4da c9be
000003c0: c036 1dbd 9ec5 abbe 5670 a0be bbc9 57be
000003d0: 0021 b73e 1171 b3bc 8cbf 203f e2ac 433e
000003e0: 89fe ebbe 75d7 183e 78dc ccbd 1eb5 15bc
000003f0: a5bc 873d 4275 5f3e 44f8 e5be 322b d2bd

lstm.weight_hh_l1 f4 [32, 8]
0.5345424 0.3487747 -0.063789696 0.20327702 0.2477613 0.29131448 0.015707526 -0.12930964
0.12179227 0.38337582 0.106458664 0.27379155 -0.05796909 0.05926242 0.18536665 -0.04563093
-0.34911594 0.07521312 -0.19843338 0.012929762 0.13341668 -0.41004685 0.19183968 0.12115611
-0.21155426 0.04167032 -0.30984274 -0.06120942 -0.18763615 0.06696131 0.005805241 0.031614967
0.079698496 0.19481218 0.21619654 0.042519353 0.40975648 -0.04315938 0.26925415 -0.1819135
-0.11302142 -0.2896066 -0.25420925 0.37685546 0.16780682 0.3558845 -0.03944775 -0.23326632
-0.02626727 0.48457536 0.0994067 -0.09056594 0.1989323 -0.34216377 -0.63910425 -0.3195747
0.04451741 -0.108739026 0.05234446 -0.32965735 -0.15413967 -0.013409665 0.29671332 -0.34195673
0.24461709 0.57959706 -0.36950922 -0.25075522 0.25367188 -0.061805934 -0.41237685 0.07465456
0.4730697 -0.038595848 -0.24785337 0.08695154 -0.12008815 0.08387145 -0.32675534 -0.035247564
0.098210506 -0.21424915 0.010684117 0.07509671 -0.33273128 0.23087741 0.4336973 -0.0869429
-0.03805001 -0.08923924 -0.29048732 -0.20053974 0.21681821 -0.27232754 -0.39806026 -0.21323095
0.35209575 -0.06653192 0.20098802 0.08595133 0.5041442 0.09676182 0.30468655 0.08470003
-0.11264179 -0.16317733 -0.049534492 0.40201882 -0.18152371 0.046872094 0.21750857 0.03590409
0.444342 -0.06957968 0.093148604 0.2939828 0.42577556 -0.2601252 -0.70660955 -0.0941094
-0.21354298 0.047394015 0.09632735 -0.31552094 0.012559862 -0.2612003 -0.07271747 -0.43060625
0.3701251 0.08102631 -0.20042317 -0.05325606 -0.16104087 0.33542147 -0.29868287 0.3666751
-0.15366329 -0.046979826 -0.07106507 -0.024500906 0.21492894 -0.21857354 0.09740972 -0.30047637
-0.08312079 0.2790729 -0.26371992 0.2765024 -0.10169973 -0.21247837 -0.22013564 -0.16654764
0.02363493 0.043419864 -0.108137585 -0.20742753 -0.17945847 -0.23633353 -0.1948374 0.16607334
-0.012456163 -0.18114133 -0.15788126 -0.17988935 0.29843244 -0.054982904 0.12079203 0.080920026
0.33522815 0.19043528 -0.21225506 0.1675993 -0.019931447 -0.11230104 -0.16633826 0.14178702
-0.25776812 0.09436684 -0.2554787 0.03203966 0.13428798 -0.2741812 0.14857015 0.25986168
0.016238946 0.20834301 -0.15822706 0.51175827 -0.52424026 -0.023385344 0.12709276 0.17924625
0.3382448 0.22195216 -0.4988068 -0.043309126 0.038091622 0.17540416 -0.19322841 -0.0660585
0.44255382 -0.12245451 0.29079047 0.04203195 0.3214605 0.3320163 0.040695895 -0.19819449
-0.20655271 -0.36435503 0.39278144 0.05822086 -0.068276025 0.092738196 0.15079397 0.1390739
0.21745022 0.37286776 0.091995895 -0.030294301 0.108731315 -0.18172073 0.15852717 0.17063381
0.4111465 0.15149145 0.035559148 -0.38592803 -0.08617529 -0.4129825 0.12912722 -0.092588894
-0.027277641 -0.0521539 0.3174539 0.17652951 0.25486705 0.30741587 0.29035226 0.22502433
0.23196623 0.54643154 0.19032283 0.00033102816 0.058126472 0.25887504 -0.5737561 0.23195964
0.05743123 0.19595176 -0.0343567 0.013480205 0.29656088 0.18649757 -0.049412794 -0.23310614
00000000: c5d7 083f 9992 b23e 2ca4 82bd da27 503e
00000010: 23b5 7d3e 2c27 953e 12ad 803c bf69 04be
00000020: 3a6e f93d d649 c43e 0007 da3d 682e 8c3e
00000030: ff70 6dbd 27bd 723d c1d0 3d3e 80e7 3abd
00000040: 53bf b2be 5609 9a3d 1f32 4bbe 5ad7 533c
00000050: 629e 083e a9f1 d1be 9f71 443e b220 f83d
00000060: aea1 58be 7fae 2a3d b5a3 9ebe bbb6 7abd
00000070: b123 40be 0323 893d e439 be3b b27e 013d
00000080: f738 a33d d87c 473e a062 5d3e c628 2e3d
00000090: 9acb d13e e4c7 30bd aedb 893e 8847 3abe
000000a0: c677 e7bd 5147 94be b727 82be 33f3 c03e
000000b0: 8dd5 2b3e 7e36 b63e f793 21bd 5edd 6ebe
000000c0: 752e d7bc 431a f83e bd95 cb3d a37a b9bd
000000d0: e9b4 4b3e 1730 afbe 569c 23bf 4c9f a3be
000000e0: e357 363d 91b2 debd 2567 563d d9c8 a8be
000000f0: cad6 1dbe 36b4 5bbc cfea 973e f414 afbe
00000100: e77c 7a3e 7960 143f 5030 bdbe fd62 80be
00000110: 48e1 813e 3828 7dbd 0f23 d3be 7de4 983d
00000120: 3136 f23e ae16 1ebd 46cd 7dbe a613 b23d
00000130: c7f0 f5bd cbc4 ab3d 7a4c a7be c05f 10bd
00000140: 9722 c93d 2164 5bbe 6f0c 2f3c 4ecc 993d
00000150: c15b aabe 216b 6c3e 930d de3e 1f0f b2bd
00000160: 54da 1bbd 10c3 b6bd c1ba 94be 4a5a 4dbe
00000170: 9805 5e3e 846e 8bbe 8ece cbbe 3759 5abe
00000180: e545 b43e e341 88bd cecf 4d3e 4007 b03d
00000190: 980f 013f 102b c63d e0ff 9b3e 3677 ad3d
000001a0: bdb0 e6bd f517 27be aee4 4abd 69d5 cd3e
000001b0: 5ae1 39be f4fc 3f3d 91ba 5e3e 2b10 133d
000001c0: cb80 e33e cb7f 8ebd b2c4 be3d ea84 963e
000001d0: 41ff d93e 212f 85be 5de4 34bf 6ebc c0bd
000001e0: 03ab 5abe 3a20 423d 4647 c53d f68b a1be
000001f0: e1c7 4d3c 0cbc 85be e6ec 94bd 6c78 dcbe
00000200: 0981 bd3e 1ff1 a53d bb3b 4dbe 0723 5abd
00000210: e6e7 24be 5dbc ab3e f6ec 98be d7bc bb3e
00000220: e959 1dbe eb6d 40bd 908a 91bd 20b6 c8bc
00000230: 5516 5c3e bed1 5fbe bf7e c73d 0ad8 99be
00000240: 3c3b aabd a5e2 8e3e 4c06 87be b991 8d3e
00000250: f347 d0bd ee93 59be 3d6b 61be 778b 2abe
00000260: 0a9e c13c 07d9 313d 3d77 ddbd e267 54be
00000270: f6c3 37be 6b01 72be 7583 47be 210f 2a3e
00000280: ef14 4cbc 1d7d 39be a0ab 21be ea34 38be
00000290: 23cc 983e c135 61bd d061 f73d 66b9 a53d
000002a0: 06a3 ab3e 7701 433e 6459 59be 279f 2b3e
000002b0: 4647 a3bc 16fe e5bd 9454 2abe 9e30 113e
000002c0: 2ffa 83be 6743 c13d 1bce 82be 053c 033d
000002d0: ca82 093e 7a61 8cbe c622 183e 970c 853e
000002e0: 8a07 853c df57 553e 4606 22be 9702 033f
000002f0: 9c34 06bf 9f92 bfbc 9b24 023e 548c 373e
00000300: 6c2e ad3e 6d47 633e 9b63 ffbe e964 31bd
00000310: f605 1c3d 269d 333e abdd 45be ae49 87bd
00000320: 6a96 e23e 6ec9 fabd 7de2 943e b229 2c3d
00000330: 7896 a43e 0afe a93e bdb0 263d 7ff3 4abe
00000340: 8e82 53be be8c babe a61a c93e ff78 6e3d
00000350: 4dd4 8bbd 86ed bd3d bc69 1a3e 6369 0e3e
00000360: 45ab 5e3e 86e8 be3e 5868 bc3d c12b f8bc
00000370: 86ae de3d 0015 3abe f254 223e a1ba 2e3e
00000380: cb81 d23e 9320 1b3e 78a6 113d 5c98 c5be
00000390: ac7c b0bd 7172 d3be ed39 043e 3f9f bdbd
000003a0: 5c75 dfbc 549f 55bd 5189 a23e 27c4 343e
000003b0: ef7d 823e 9d65 9d3e 0da9 943e c76c 663e
000003c0: 8e88 6d3e f0e2 0b3f fde3 423e d98d ad39
000003d0: 0616 6e3d 458b 843e aee1 12bf d486 6d3e
000003e0: 023d 6b3d 94a7 483e 9cb9 0cbd 14dc 5c3c
000003f0: d4d6 973e 38f9 3e3e 1265 4abd 60b3 6ebe

lstm.bias_ih_l1 f4 [32]
-0.17477848 0.40135455 0.107708775 0.37939098 0.4216853 0.09569822 0.2798618 0.03099184
-0.15548013 0.321639 -0.34191334 0.03248979 0.04660792 -0.15623263 0.022120997 0.051329415
0.2790667 0.3465774 -0.04818809 -0.08350443 0.1428399 -0.27328756 -0.14337684 -0.37537575
-0.0327455 0.47567895 -0.015571498 0.16771607 -0.068817 0.278485 -0.06026076 0.08632452
00000000: 21f9 32be 587e cd3e 6b96 dc3d 893f c23e
00000010: 23e7 d73e 6efd c33d 0c4a 8f3e 99e2 fd3c
00000020: 2f36 1fbe dead a43e 440f afbe 0414 053d
00000030: f2e7 3e3d 72fb 1fbe 1837 b53c cb3e 523d
00000040: d5e1 8e3e 9872 b13e e060 45bd 5f04 abbd
00000050: 9f44 123e 59ec 8bbe 61d1 12be 4031 c0be
00000060: 2520 06bd 318c f33e 991f 7fbc c3bd 2b3e
00000070: edef 8cbd 9695 8e3e fdd3 76bd e9ca b03d

lstm.bias_hh_l1 f4 [32]
0.45474765 0.45542973 -0.42089102 0.17542273 0.24542503 -0.15488632 0.35176492 0.28495374
0.2782621 0.3984295 0.021461627 0.2501152 0.16249269 -0.23191434 -0.07506472 0.48079807
0.20311111 0.086331 -0.32221448 -0.08967333 0.08889373 -0.121198885 0.07391574 -0.10078298
0.071726665 0.19465421 -0.42122433 0.37053153 0.11546861 -0.09956341 -0.07372334 0.31035146
00000000: afd4 e83e 162e e93e 077f d7be 04a2 333e
00000010: b350 7b3e 859a 1ebe 881a b43e 75e5 913e
00000020: 5f78 8e3e f4fe cb3e 4bd0 af3c 190f 803e
00000030: 7c64 263e f47a 6dbe 88bb 99bd 2a2b f63e
00000040: 5cfc 4f3e 4fce b03d 4cf9 a4be a7a6 b7bd
00000050: ea0d b63d 1f37 f8bd 2361 973d 4f67 cebd
00000060: 6ee5 923d 6f53 473e b7aa d7be 4fb6 bd3e
00000070: ce7a ec3d e7e7 cbbd 43fc 96bd 63e6 9e3e

fc.weight f4 [3, 8]
0.28629884 -0.34256572 0.2570226 -0.0153313065 -0.35206184 0.12111623 -0.06869759 0.4240338
-0.41283125 -0.11636329 -0.068964615 -0.18851793 -0.15064332 -0.10451987 0.41477478 -0.19499034
0.09578195 0.2841764 -0.09200011 -0.19383167 0.15424974 0.026200628 -0.1638655 -0.17533259
00000000: c395 923e c664 afbe 7798 833e 2930 7bbc
00000010: 7341 b4be c90b f83d 52b1 8cbd f51a d93e
00000020: 9e5e d3be e04f eebd 523d 8dbd d80a 41be
00000030: 3e42 1abe 830e d6bd 5c5d d43e 8cab 47be
00000040: 5429 c43d 927f 913e 8e6a bcbd cf7b 46be
00000050: a5f3 1d3e b3a2 d63c 5ccc 27be 638a 33be

fc.bias f4 [3]
-0.3664996 -0.20507976 0.1070138
00000000: d6a5 bbbe 6e00 52be 0d2a db3d
