checkpoint/best_model2.pt (torch, 10416 bytes, 10 tensors)

lstm.weight_ih_l0 f4 [32, 34]
0.20325565 0.2842934 0.12559517 -0.23751573 0.20890272 -0.009298854 0.17187741 0.25494808
-0.1107026 -0.12421757 0.3923047 0.014290211 -0.031005917 0.040893428 0.2639999 0.113602996
-0.22450782 -0.23968172 0.10361636 0.088741526 0.1110243 0.27322063 -0.25796056 -0.42596707
0.0025376643 0.02470312 0.15349054 0.013987044 -0.36420137 0.06653752 0.25470054 0.05382219
-0.37135017 0.19438925 0.16027789 -0.29194537 0.11541391 0.26496792 0.15281433 0.2976979
-0.11847273 -0.3064248 -0.3274441 -0.053911544 0.18544301 0.08129682 -0.0794592 0.3300074
0.057641506 0.18809271 -0.05155046 -0.08287476 0.14609878 0.18703255 -0.36628658 0.050473064
-0.15421845 -0.17056882 -0.21003649 0.04805289 0.009401678 0.017732479 0.124345526 -0.28221473
0.051061634 -0.28261313 -0.20776497 -0.2265003 0.27085283 0.04581757 0.26142278 -0.07775275
0.15829068 0.21049999 -0.15214829 0.07844235 -0.32829726 0.1857346 -0.09510414 -0.2750119
0.02305981 -0.06738289 0.14511804 0.0038884908 -0.32544437 0.22528073 0.20887722 0.16387019
0.182992 0.4175476 0.17630619 0.28432783 0.062425785 0.45680016 -0.1264538 0.03645054
0.0013940341 0.034764443 0.1481332 -0.112145945 0.34707433 0.20606042 -0.048659064 -0.32901242
-0.046658877 -0.0768556 -0.047342215 0.0030060357 0.38401824 -0.26305094 -0.0323286 0.19759978
-0.0036861878 -0.17847107 -0.1140186 0.15953355 0.08478422 -0.05411259 0.042638287 -0.20626648
0.17571586 0.18605646 -0.2718816 0.010350268 -0.2551517 -0.29397613 0.021159025 -0.17802958
0.2189057 0.14330427 -0.12580329 -0.37726 0.37774363 -0.0127447 0.32294953 -0.08790271
-0.26459387 0.035687435 0.116117954 -0.10728403 -0.14900996 -0.0095104575 0.10179968 0.09034252
-0.4498786 -0.034371715 -0.27482384 0.3054894 -0.1393251 0.05952188 0.22408068 0.20077589
0.23993933 0.08627295 -0.06762363 0.023327481 -0.4207519 0.107783526 -0.19133006 0.21549776
0.07249057 -0.22934258 -0.18953548 0.3862368 -0.035187706 0.1251279 -0.13665226 -0.026204813
0.06270389 -0.21268798 0.26562044 -0.3813822 -0.09359709 -0.37143493 -0.2018365 0.21573718
-0.031600535 0.09198645 0.20686279 -0.35868812 -0.06849231 0.2419862 -0.20127831 0.0057806266
0.1301247 -0.056357786 0.062329985 0.24339582 -0.15141581 0.03611402 -0.30049038 0.29720652
0.10320398 -0.36757436 0.41377097 0.30188707 0.27078155 0.018325942 0.060806166 0.11882154
-0.28571424 -0.0610392 0.15317003 -0.2978525 0.17248484 0.08221087 0.097287156 -0.15937202
-0.02048769 -0.13962208 -0.16384111 -0.026501765 0.022966186 -0.30020756 0.26341748 -0.005190617
0.009297754 0.07366463 0.04350314 -0.07505508 0.32055044 -0.23250836 -0.13408428 0.17594218
0.19600531 0.3593215 0.02347541 0.2448841 -0.012494551 0.21562465 -0.17661636 0.054085895
0.023081034 0.017728206 0.24892303 -0.04764596 0.120145835 -0.38334808 0.40084913 -0.11583516
-0.043178372 0.13534488 -0.191879 -0.27185097 -0.08049784 -0.22118023 -0.21540953 0.04207051
0.05749115 0.0044856705 0.014245483 -0.37202492 -0.180188 -0.19420506 -0.26712582 -0.11749458
00000000: 4022 503e e88e 913e 059c 003e 5337 73be
00000010: 98ea 553e 385a 18bc a200 303e 8e88 823e
00000020: 0bb8 e2bd c865 febd 29dc c83e 7d21 6a3c
00000030: 1f00 febc de7f 273d ff2a 873e b0a8 e83d
00000040: 61e5 65be 206f 75be d034 d43d 1ebe b53d
00000050: b560 e33d 93e3 8b3e 6813 84be 5b18 dabe
00000060: f14e 263b 335e ca3c a02c 1d3e ea29 653c
00000070: 9a78 babe d344 883d 1c68 823e a874 5c3d
00000080: 9c21 bebe fa0d 473e e31f 243e dd79 95be
00000090: 215e ec3d e0a9 873e 5c7b 1c3e dc6b 983e
000000a0: d5a1 f2bd b6e3 9cbe c1a6 a7be 5ad2 5cbd
000000b0: c6e4 3d3e f27e a63d 81bb a2bd bbf6 a83e
000000c0: 8019 6c3d 609b 403e 9326 53bd 3eba a9bd
000000d0: eb9a 153e 7685 3f3e ea89 bbbe d8bc 4e3d
000000e0: 71eb 1dbe 98a9 2ebe ce13 57be 1bd3 443d
000000f0: 7f09 1a3c b443 913c dea8 fe3d 737e 90be
00000100: 0126 513d abb2 90be 57c0 54be b2ef 67be
00000110: 39ad 8a3e 34ab 3b3d 35d9 853e d53c 9fbd
00000120: f416 223e 4f8d 573e c3cc 1bbe 62a6 a03d
00000130: 9416 a8be 3631 3e3e f6c5 c2bd 5cce 8cbe
00000140: ede7 bc3c 0a00 8abd d399 143e 0dd6 7e3b
00000150: a5a0 a6be feaf 663e e9e3 553e 96cd 273e
00000160: 4162 3b3e cdc8 d53e 9c89 343e 6b93 913e
00000170: 2eb2 7f3d b6e1 e93e 1b7d 01be 294d 153d
00000180: 06b8 b63a 2965 0e3d 3bb0 173e c6ac e5bd
00000190: bab3 b13e 8101 533e ba4e 47bd 5174 a8be
000001a0: 611d 3fbd 7866 9dbd e9e9 41bd e900 453b
000001b0: 0a9e c43e 9dae 86be fe6a 04bd 9957 4a3e
000001c0: f893 71bb 1fc1 36be 9582 e9bd c35c 233e
000001d0: 59a3 ad3d 2aa5 5dbd 7ca5 2e3d 8537 53be
000001e0: dcee 333e 9685 3e3e 1134 8bbe 2c94 293c
000001f0: 3ea3 82be 0a84 96be b155 ad3c 634d 36be
00000200: d128 603e 5bbe 123e 94d2 00be 3928 c1be
00000210: 9d67 c13e 25cf 50bc a459 a53e 5606 b4bd
00000220: d978 87be fd2c 123d 40cf ed3d bbb7 dbbd
00000230: 1196 18be c0d1 1bbc 5a7c d03d 8005 b93d
00000240: 7d56 e6be 5bc9 0cbd b6b5 8cbe 1b69 9c3e
00000250: 3dab 0ebe 37cd 733d 6875 653e 3298 4d3e
00000260: a8b2 753e dfaf b03d 427e 8abd 4619 bf3c
00000270: cb6c d7be 9cbd dc3d 07ec 43be 72ab 5c3e
00000280: f075 943d c8d8 6abe 9715 42be d4c0 c53e
00000290: fc20 10bd 8721 003e 92ee 0bbe 7aab d6bc
000002a0: e66a 803d e1ca 59be 67ff 873e 8744 c3be
000002b0: d5af bfbd b82c bebe 3aae 4ebe 35ea 5c3e
000002c0: 906f 01bd 6463 bc3d d7d3 533e f8a5 b7be
000002d0: b245 8cbd 3bcb 773e e71b 4ebe 696b bd3b
000002e0: 693f 053e 6cd7 66bd ba4d 7f3d c13c 793e
000002f0: bf0c 1bbe 4bec 133d e0d9 99be 742b 983e
00000300: 9c5c d33d b532 bcbe cad9 d33e f190 9a3e
00000310: e1a3 8a3e 4920 963c e30f 793d b558 f33d
00000320: 2349 92be 3d04 7abd 9bd8 1c3e 1f80 98be
00000330: de9f 303e 2c5e a83d 7d3e c73d 6b32 23be
00000340: cdd5 a7bc 17f9 0ebe f7c5 27be 3b1a d9bc
00000350: 9523 bc3c ceb4 99be a8de 863e 0d16 aabb
00000360: 9b55 183c 7bdd 963d 5930 323d 7ab6 99bd
00000370: 301f a43e ac16 6ebe 644d 09be 302a 343e
00000380: 9eb5 483e fdf8 b73e 814f c03c e6c2 7a3e
00000390: f2b5 4cbc b5cc 5c3e ebda 34be 2c89 5d3d
000003a0: 7014 bd3c be3a 913c aee5 7e3e 6928 43bd
000003b0: 050f f63d 3346 c4be 193c cd3e fc3a edbd
000003c0: cedb 30bd d997 0a3e ee7b 44be 0d30 8bbe
000003d0: 0ddc a4bd 127d 62be 5194 5cbe 2152 2c3d
000003e0: d77b 6b3d 88fc 923b e365 693c 0d7a bebe
000003f0: 3483 38be b1dd 46be b7c4 88be 00a1 f0bd

lstm.weight_hh_l0 f4 [32, 8]
0.0108289225 -0.11405816 0.32479563 -0.1961602 -0.29972005 0.012535968 0.04205251 -0.07586573
-0.3057065 0.3043959 -0.20728582 -0.2073899 -0.31876826 0.23323962 0.44668323 0.16548897
0.33722517 0.0038203169 -0.18760394 0.047998738 -0.018531647 0.0844259 -0.104346685 -0.40991953
0.28016338 -0.28927067 0.16602127 -0.16533935 0.2503758 -0.19539781 -0.23578385 -0.16712297
-0.28734624 0.12892465 0.3405169 0.058605567 0.1745591 -0.22939236 -0.11349658 0.06343156
-0.08036193 -0.19147342 -0.051314086 -0.12888524 -0.1700824 0.19759178 0.14914128 -0.14354053
-0.15311328 0.08669406 0.21724918 0.02246811 0.29140207 -0.25866035 0.31376413 -0.0550847
-0.3058991 -0.31972724 -0.14835148 0.1457086 -0.17802137 0.12168824 0.17385681 -0.19315095
-0.28624335 -0.095385514 0.14080974 -0.06982454 0.11789973 0.10651823 0.37949738 0.11259874
-0.3551924 -0.068442844 0.08450852 0.24041942 0.26125905 -0.08672113 -0.26523364 0.05258656
-0.09800217 -0.17732498 0.28752792 -0.032919295 0.13448301 0.3222148 -0.21571544 -0.09048281
0.16416629 0.18003568 0.37057966 0.30165958 -0.16927628 -0.16252805 0.19619527 0.32476127
-0.13495068 0.17866248 -0.3446281 -0.30080256 0.37907398 -0.18693236 0.05405581 0.010668463
-0.019842885 0.18745348 0.3336804 -0.20689026 0.32224452 -0.08273232 -0.27128926 -0.16633606
0.1063759 -0.16839622 0.19124052 0.038161147 0.16392915 0.26765087 -0.057253297 -0.35057038
0.23475926 0.21973602 0.14279723 -0.27431163 0.03130352 0.34543145 -0.106309704 -0.28636324
-0.2473762 0.013089375 0.0066481475 0.067520924 -0.061254684 0.100522466 -0.12895893 0.0013545821
0.22099008 -0.02125413 0.068472505 -0.29157826 0.023222934 0.07805829 -0.20940988 0.015685203
0.20639573 0.3646925 -0.14528988 0.12285192 -0.40034384 0.26946995 -0.009272114 0.055705667
-0.050083145 -0.09820767 -0.21208645 -0.25262058 0.22904551 -0.13023342 0.19820075 -0.38337055
0.20761701 0.10038508 -0.3801415 0.27414033 -0.026444154 0.02872158 -0.12480323 -0.21080829
-0.121883795 -0.09661604 -0.07498047 0.08455795 0.18931736 -0.23371035 0.2256658 0.3215213
-0.03871243 -0.27798212 -0.024239521 0.24029267 -0.101232715 0.27940753 0.15481934 0.05923257
0.12380866 0.24603435 -0.27709046 0.020518007 -0.06775121 -0.26804027 0.011072196 -0.19583987
0.16032891 0.03994078 -0.27171826 0.008460717 0.33977443 -0.21471798 -0.16435368 0.21175452
0.07661283 -0.22085066 -0.26691446 -0.30140078 0.2866112 -0.26518324 0.1285888 0.0005098755
-0.23295628 0.21630034 0.2321849 0.117354915 -0.09808545 0.2684897 0.0014552289 -0.077603295
0.25545612 0.28446028 0.43631116 0.19377348 0.26939288 0.21959795 -0.13533582 -0.24617824
-0.3092688 0.20141435 0.10159969 -0.31496596 0.03049129 0.13685748 0.26886222 -0.06458664
-0.35169315 0.0979017 0.1653987 0.11605452 0.03117133 0.28011665 -0.1644769 0.109397694
0.13054432 0.13849536 -0.110057786 -0.16041517 -0.18911982 0.14735164 -0.15752041 -0.30033457
-0.11854947 0.184044 -0.174645 -0.1184418 -0.015089893 -0.15127133 0.21545202 -0.09166838
00000000: cb6b 313c 5397 e9bd 9d4b a63e 38de 48be
00000010: e874 99be a963 4d3c 413f 2c3d 7e5f 9bbd
00000020: 9085 9cbe c8d9 9b3e bc42 54be 055e 54be
00000030: 9835 a3be 5ed6 6e3e aab3 e43e f175 293e
00000040: c7a8 ac3e 485e 7a3b 3f1b 40be 539a 443d
00000050: aecf 97bc 7ce7 ac3d b7b3 d5bd f9e0 d1be
00000060: 9371 8f3e 491b 94be 7b01 2a3e b84e 29be
00000070: 4231 803e 5d16 48be 5271 71be 4922 2bbe
00000080: 0c1f 93be d304 043e 3b58 ae3e 640c 703d
00000090: 9fbf 323e d5e5 6abe e570 e8bd 68e8 813d
000000a0: cc94 a4bd 9c11 44be b82e 52bd 7efa 03be
000000b0: 152a 2ebe 8055 4a3e 7eb8 183e 4afc 12be
000000c0: bac9 1cbe a88c b13d 9276 5e3e 0b0f b83c
000000d0: a732 953e 216f 84be b1a5 a03e 7fa0 61bd
000000e0: cf9e 9cbe 4ab3 a3be 73e9 17be a334 153e
000000f0: 3c4b 36be af37 f93d 8507 323e 5dc9 45be
00000100: 7d8e 92be 7b59 c3bd 6e30 103e 2b00 8fbd
00000110: 6a75 f13d 3b26 da3d 7b4d c23e 2b9a e63d
00000120: c7db b5be c32b 8cbd ce12 ad3d 8230 763e
00000130: bfc3 853e d99a b1bd b4cc 87be 0165 573d
00000140: 5db5 c8bd ae94 35be dc36 933e 62d6 06bd
00000150: eab5 093e 57f9 a43e 82e4 5cbe 0d4f b9bd
00000160: 351b 283e 465b 383e 9ebc bd3e 2073 9a3e
00000170: c356 2dbe c16d 26be 6ae7 483e 1c47 a63e
00000180: 8330 0abe 4cf3 363e 1873 b0be cb02 9abe
00000190: fc15 c23e 326b 3fbe a069 5d3d c7ca 2e3c
000001a0: 8c8d a2bc cef3 3f3e 28d8 aa3e 0adb 53be
000001b0: 3cfd a43e 906f a9bd 6de6 8abe 0054 2abe
000001c0: 9cdb d93d 0f70 2cbe 8ed4 433e dd4e 1c3d
000001d0: 0bdd 273e 8909 893e 6f82 6abd f67d b3be
000001e0: bb64 703e 7b02 613e 7039 123e 9372 8cbe
000001f0: 1f38 003d 64dc b03e e7b8 d9bd 349e 92be
00000200: 3050 7dbe d174 563c b4d8 d93b 6948 8a3d
00000210: 31e6 7abd b9de cd3d cf0d 04be 3c8c b13a
00000220: 394b 623e 241d aebc 503b 8c3d bf49 95be
00000230: 063e be3c 06dd 9f3d 8b6f 56be 417e 803c
00000240: 6759 533e fab8 ba3e dfc6 14be ca99 fb3d
00000250: def9 ccbe f7f7 893e 11ea 17bc a02b 643d
00000260: fc23 4dbd 1a21 c9bd 312d 59be 7c57 81be
00000270: e88a 6a3e e95b 05be 23f5 4a3e 2549 c4be
00000280: 8e99 543e b196 cd3d e8a1 c2be 1f5c 8c3e
00000290: 69a1 d8bc 8549 eb3c d698 ffbd 21de 57be
000002a0: 369e f9bd a1de c5bd 5c8f 99bd b82c ad3d
000002b0: 69dc 413e c451 6fbe ef14 673e 719e a43e
000002c0: ed90 1ebd ac53 8ebe f691 c6bc 480f 763e
000002d0: 1953 cfbd 810e 8f3e f688 1e3e da9d 723d
000002e0: 658f fd3d 6ef0 7b3e cdde 8dbe 6115 a83c
000002f0: 25c1 8abd 933c 89be 2868 353c 3f8a 48be
00000300: 432d 243e f198 233d a81e 8bbe d29e 0a3c
00000310: eaf6 ad3e 08df 5bbe 554c 28be 2dd6 583e
00000320: 30e7 9c3d ad26 62be 03a9 88be 3451 9abe
00000330: b4be 923e 19c6 87be c8ac 033e 2aa9 053a
00000340: 178c 6ebe d67d 5d3e e1c1 6d3e c657 f03d
00000350: 06e1 c8bd 7b77 893e 61bd be3a 7aee 9ebd
00000360: 25cb 823e c7a4 913e 2d64 df3e 8e6c 463e
00000370: dded 893e 49de 603e 7995 0abe 2616 7cbe
00000380: 7b58 9ebe 903f 4e3e 8013 d03d 3843 a1be
00000390: dfc8 f93c 5e24 0c3e 4fa8 893e 0046 84bd
000003a0: 2011 b4be b080 c83d 475e 293e fead ed3d
000003b0: 045b ff3c 736b 8f3e a26c 28be e60b e03d
000003c0: 69ad 053e bad1 0d3e fa65 e1bd e043 24be
000003d0: a0a8 41be 59e3 163e 084d 21be 74c5 99be
000003e0: 11ca f2bd 0876 3c3e 24d6 32be 9d91 f2bd
000003f0: 993b 77bc dfe6 1abe 749f 5c3e a2bc bbbd

lstm.bias_ih_l0 f4 [32]
0.34244868 0.09249584 0.2887784 -0.28152272 -0.19086744 0.07623589 -0.046393067 0.35532224
0.083206974 0.35861212 0.06888944 0.18785504 -0.047421135 -0.14958265 0.16838442 -0.06317453
0.0006515801 -0.096589655 -0.35738775 0.31416374 0.15520504 0.1695118 -0.023414662 0.25110924
0.33504367 0.050900485 0.3602064 -0.19546573 0.3938437 0.3457609 -0.047712356 0.18623424
00000000: 6f55 af3e 756e bd3d c3da 933e bf23 90be
00000010: c172 43be 9021 9c3d a806 3ebd ccec b53e
00000020: 6b68 aa3d 029c b73e e815 8d3d 125d 403e
00000030: aa3c 42bd 322c 19be f76c 2c3e a661 81bd
00000040: cdce 2a3a ccd0 c5bd 87fb b6be 12da a03e
00000050: 12ee 1e3e 8094 2d3e 1bd0 bfbc 6491 803e
00000060: d88a ab3e 077d 503d f96c b83e 2b28 48be
00000070: e2a5 c93e 9307 b13e 086e 43bd 30b4 3e3e

lstm.bias_hh_l0 f4 [32]
0.01958583 -0.12204646 -0.17218372 -0.3509692 0.003816328 0.2577013 0.3818001 -0.043844875
0.21371605 -0.2970049 -0.25872156 0.0930233 -0.046416137 0.19746916 0.45174804 -0.12664782
0.07770631 -0.07617128 0.2703432 -0.25815746 0.1604732 -0.048426893 0.26306254 0.08899601
0.3517602 -0.2011623 -0.018053383 0.31669503 -0.21523838 0.3303397 0.33377504 0.1528334
00000000: 7672 a03c 7ff3 f9bd ee50 30be 3cb2 b3be
00000010: 5c1b 7a3b 6df1 833e 4d7b c33e af96 33bd
00000020: 61d8 5a3e 0711 98be 2777 84be 0083 be3d
00000030: d91e 3ebd 5b35 4a3e 854b e73e f7af 01be
00000040: 7c24 9f3d b0ff 9bbd 6d6a 8a3e 372d 84be
00000050: 1653 243e 475b 46bd 22b0 863e 8a43 b63d
00000060: ea19 b43e 7dfd 4dbe b0e4 93bc da25 a23e
00000070: 7367 5cbe 4922 a93e 90e4 aa3e 5c80 1c3e

lstm.weight_ih_l1 f4 [32, 8]
-0.1424853 -0.21777451 -0.3682076 -0.07921991 -0.08893209 0.33249176 0.36692345 0.11533978
-0.12118986 -0.19138858 0.034384243 0.04257582 -0.1202209 0.26750833 -0.01313983 0.14238569
-0.28671145 0.0030899309 -0.34079742 -0.10726849 -0.22235113 0.14354868 -0.20337692 -0.12512192
0.0061048665 0.16130017 0.29931074 -0.1462955 0.2737527 -0.2843001 -0.3010972 0.052855432
-0.30424777 -0.16659999 0.17186333 -0.012792244 -0.2884568 0.19867744 -0.23247498 0.025892844
-0.11565059 0.10347384 0.01607021 0.27002245 0.38781708 -0.07127469 0.4513881 0.008326826
-0.042444933 0.33756703 0.03407709 0.1695609 0.3372224 -0.25401095 0.32514876 0.1721236
-0.07620982 0.21568953 -0.37981427 -0.22297731 -0.20894486 -0.21805969 0.2947633 0.10933408
-0.5236287 -0.16261962 -0.2914065 -0.25544295 0.19476524 0.33778676 0.4117876 -0.15215302
0.10282956 0.13755222 -0.3656942 0.2537203 0.021984223 0.4185268 0.09417215 -0.2491784
0.08864152 -0.07133281 -0.34971538 0.26528227 -0.13080618 0.10208603 0.27460665 -0.2802089
-0.23835391 -0.39480343 -0.11539639 -0.15923117 0.224105 0.13755165 -0.14873576 -0.2892342
-0.06741476 -0.02051905 -0.121966474 -0.0716556 -0.05331792 0.18300386 0.3032859 0.22153278
0.14935333 -0.0042352937 -0.32622972 0.41587356 0.4381911 0.16451117 0.45256594 -0.14487988
-0.2564898 0.30222246 -0.18323347 -0.23186456 -0.31322533 -0.26737928 0.13862203 -0.026506633
-0.10089032 -0.17239466 0.087642066 0.3117416 0.23947479 0.34232458 0.02571196 0.2584172
0.17714313 0.3242895 0.036089253 0.3803718 0.47144887 0.3834168 0.1201027 0.23953554
-0.04174274 0.2454116 -0.008786224 0.20395102 0.421862 0.34167257 0.19440882 -0.29689795
-0.27964905 0.006964392 0.22269686 -0.38612145 -0.006294353 0.09102911 -0.17017145 0.1521468
-0.019639162 0.22320424 -0.2800641 0.0026758288 0.14288387 0.2549837 0.093909994 0.11613005
-0.022092706 0.34282997 0.3600602 0.3158497 -0.015496058 -0.1621232 -0.326204 -0.19327565
0.32441804 0.024745245 0.18024987 0.34947267 -0.19754034 -0.11136918 -0.48776627 0.33603206
0.39506415 -0.34269652 -0.08582646 -0.3088496 -0.39371195 0.14238273 -0.3576698 -0.06533747
0.19156145 -0.020281827 -0.07370589 -0.030920666 0.113902636 0.26794627 0.4832111 -0.28904092
-0.15117761 -0.027596524 -0.1678837 0.35682774 0.08130849 0.38483417 0.013388566 -0.42905843
-0.44418076 0.10799979 -0.3051711 0.11163557 -0.05567154 -0.14553562 0.33721882 -0.30463326
-0.3264982 0.34261456 0.07793959 -0.1558019 0.3206103 -0.27719948 0.3006431 -0.39814693
0.189403 -0.36075392 -0.27927926 -0.18539834 -0.22182643 -0.2684495 -0.16054745 0.27411628
-0.392613 0.2196765 -0.1709304 0.2856046 -0.09308237 -0.21668999 0.22865967 -0.22722547
-0.33115414 -0.18805721 -0.17381194 0.13480105 0.18035848 -0.10697856 0.27706552 0.067731716
0.3380782 0.12446717 -0.19817296 0.0012866845 0.31078067 -0.30129227 -0.30921608 -0.32887438
-0.0019827588 -0.086184405 -0.18703483 0.2039459 -0.07846067 0.42058998 -0.13603452 0.020027883
00000000: abe7 11be 4800 5fbe b585 bcbe 0c3e a2bd
00000010: 0722 b6bd 5c3c aa3e 64dd bb3e 4337 ec3d
00000020: 6432 f8bd 5efb 43be 7ed6 0c3d fc63 2e3d
00000030: 6036 f6bd daf6 883e 7148 57bc 8ecd 113e
00000040: d8cb 92be 7080 4a3b 007d aebe 95af dbbd
00000050: 04b0 63be 6dfe 123e 0a42 50be f61f 00be
00000060: 550b c83b df2b 253e 423f 993e 7dce 15be
00000070: 5029 8c3e c88f 91be 6a29 9abe f07e 583d
00000080: 5dc6 9bbe 3099 2abe f1fc 2f3e 8f96 51bc
00000090: 9cb0 93be 1972 4b3e ec0d 6ebe 3b1d d43c
000000a0: 37da ecbd 18ea d33d aca5 833c 6240 8a3e
000000b0: f68f c63e 77f8 91bd 571c e73e 3d6d 083c
000000c0: bdda 2dbd 96d5 ac3e 6b94 0b3d 5fa1 2d3e
000000d0: 6aa8 ac3e b90d 82be e679 a63e 2b41 303e
000000e0: e513 9cbd b7dd 5c3e 0477 c2be 2a54 64be
000000f0: a4f5 55be 0a4b 5fbe 37eb 963e 8cea df3d
00000100: 880c 06bf c285 26be 3c33 95be 6bc9 82be
00000110: 8a70 473e 63f2 ac3e d3d5 d23e 00ce 1bbe
00000120: 4e98 d23d 7dda 0c3e 453c bbbe a1e7 813e
00000130: 4218 b43c 2549 d63e 54dd c03d 9f28 7fbe
00000140: af89 b53d f016 92bd e50d b3be 14d3 873e
00000150: 0ef2 05be 7b12 d13d 3e99 8c3e 8a77 8fbe
00000160: 0c13 74be ad23 cabe f154 ecbd 7f0d 23be
00000170: c87b 653e 57da 0c3e 304e 18be 8116 94be
00000180: c010 8abd 9117 a8bc 8fc9 f9bd 2cc0 92bd
00000190: e463 5abd 5d65 3b3e 4a48 9b3e 7dd9 623e
000001a0: 14f0 183e 38c8 8abb 9507 a7be 61ed d43e
000001b0: 955a e03e 9e75 283e b9b6 e73e 645b 14be
000001c0: a252 83be e7bc 9a3e 8ea1 3bbe e76d 6dbe
000001d0: 125f a0be f0e5 88be eff2 0d3e 7024 d9bc
000001e0: 969f cebd 3a88 30be af7d b33d 989c 9f3e
000001f0: e138 753e 2b45 af3e e3a1 d23c 424f 843e
00000200: 0265 353e 4609 a63e 53d2 133d 18c0 c23e
00000210: bf61 f13e 354f c43e 68f8 f53d ce48 753e
00000220: 6ffa 2abd 2e4d 7b3e 18f4 0fbc 89d8 503e
00000230: 4cfe d73e b5ef ae3e 1b13 473e 0203 98be
00000240: 292e 8fbe 8e35 e43b a50a 643e b6b1 c5be
00000250: dc40 cebb 786d ba3d 6d41 2ebe 5fcc 1b3e
00000260: 4fe2 a0bc a78f 643e 9064 8fbe f55c 2f3b
00000270: 2650 123e 398d 823e e253 c03d 97d5 ed3d
00000280: c3fb b4bc 6987 af3e cf59 b83e 0db7 a13e
00000290: 2ee3 7dbc a003 26be 3604 a7be 0dea 45be
000002a0: 1f1a a63e 8ab6 ca3c 6c93 383e 15ee b23e
000002b0: 0448 4abe 8615 e4bd 80bc f9be 650c ac3e
000002c0: d945 ca3e eb75 afbe c8c5 afbd 8921 9ebe
000002d0: 9d94 c9be c7cc 113e 7f20 b7be a7cf 85bd
000002e0: af28 443e 1326 a6bc 1df3 96bd 564d fdbc
000002f0: c945 e93d 4130 893e 7267 f73e 2cfd 93be
00000300: 4ece 1abe 1b12 e2bc b4e9 2bbe 20b2 b63e
00000310: 1185 a63d fc08 c53e b75b 5b3c 8cad dbbe
00000320: a96b e3be fe2e dd3d 633f 9cbe 31a1 e43d
00000330: d707 64bd 4a07 15be f2a7 ac3e e4f8 9bbe
00000340: c62a a7be 2d6b af3e cb9e 9f3d 898a 1fbe
00000350: 0927 a43e 17ed 8dbe e4ed 993e ead9 cbbe
00000360: dcf2 413e bdb4 b8be b1fd 8ebe 10d9 3dbe
00000370: 7826 63be 3672 89be 8d66 24be f858 8c3e
00000380: 9204 c9be e0f2 603e 6108 2fbe c43a 923e
00000390: f8a1 bebd fbe3 5dbe c325 6a3e cbad 68be
000003a0: 098d a9be 1292 40be c2fb 31be 4909 0a3e
000003b0: e5af 383e 9317 dbbd 88db 8d3e edb6 8a3d
000003c0: 9618 ad3e a5e8 fe3d daed 4abe f8a5 a83a
000003d0: a51e 9f3e fb42 9abe 9251 9ebe 3962 a8be
000003e0: 2cf1 01bb 7381 b0bd 0f86 3fbe 32d7 503e
000003f0: fdaf a0bd 9257 d73e a24c 0bbe 8411 a43c

lstm.weight_hh_l1 f4 [32, 8]
0.50605637 0.019858293 -0.075232536 0.21761209 -0.19993196 -0.044172972 0.21686655 0.15312015
-0.07603379 -0.053004812 -0.004761714 -0.10305869 -0.45257545 -0.42643964 0.036695383 -0.3069219
-0.04614395 0.30530995 0.17953445 -0.12521476 -0.25922093 0.05422437 0.051866025 0.074723974
0.06889728 -0.285249 -0.2668848 -0.22190467 -0.03085043 -0.0915538 -0.00091954856 -0.28616035
-0.33539334 -0.2550117 -0.2348034 -0.06413461 -0.16641787 -0.3136575 0.13512757 0.22027895
0.3103803 0.5054736 -0.005423954 0.020532139 0.06881143 -0.36388373 -0.12506631 -0.20404571
-0.29779777 0.018559946 0.070567794 -0.07914484 -0.02008388 0.24379884 0.047620285 0.33857182
0.07964775 -0.112893 -0.2523986 0.21180296 0.30293128 -0.36439523 -0.39245006 0.047915384
0.00613529 0.018770505 -0.10296024 -0.04396555 -0.11881607 -0.410179 0.26177993 0.25294745
-0.11854881 0.32009438 -0.13510416 0.0706029 -0.13490538 -0.07410596 -0.17623106 -0.0030488186
0.046169728 -0.09228511 0.2645736 -0.28300482 -0.07566436 -0.38011912 0.16807652 0.0032883654
0.17228802 -0.23494995 -0.1085349 -0.3178557 0.12945758 0.193622 0.095955215 -0.116283834
0.10261017 -0.22904561 0.22230852 -0.03682624 0.3386608 -0.19426034 -0.19112588 0.022064753
0.105341375 0.31018785 -0.40258527 0.29111347 0.08936046 -0.17516553 -0.28598276 0.026232889
-0.28087804 0.0045329463 -0.116111934 -0.13352494 -0.09904502 0.2513326 -0.13212645 -0.2760399
0.047085192 -0.0042548277 -0.31727645 -0.3130233 0.17906189 -0.30288595 0.13175862 -0.018555846
0.15137833 -0.091768675 -0.20369352 -0.19850025 -0.41005647 -0.007638621 -0.17796212 0.3000877
0.44352955 0.3155989 0.014607138 -0.1563943 0.14700694 -0.29864922 -0.28847936 0.15114084
0.08326921 0.1955128 0.37505418 -0.2301153 0.107031144 -0.07948723 0.24013259 0.017677834
-0.25622565 -0.13905087 0.073805004 -0.08809271 0.18451752 -0.17077082 -0.32559112 -0.13026915
0.056376122 0.15225068 0.006884402 -0.26706892 0.33817953 -0.21606737 0.24474898 -0.27616292
0.06969279 -0.3929492 0.36248216 -0.024502603 0.13136859 0.23386754 0.019177306 0.028132476
-0.3142099 0.20825998 0.3619626 -0.31508183 0.03663692 -0.24402656 -0.025870414 -0.32650286
0.2000817 0.23801543 -0.22385357 -0.17349632 -0.09754665 0.14904416 0.0033470385 -0.13555682
0.37198648 0.10805693 0.049971744 0.22962803 -0.42127576 0.043341774 0.055994064 0.21367571
-0.14577106 0.27084377 -0.012703096 -0.049572237 -0.17135318 -0.31831875 -0.17918241 0.11894012
-0.12150033 -0.03267012 -0.12733166 0.0189131 0.0948238 0.16110039 -0.1622232 0.21852802
0.036244035 0.15945067 0.07956166 -0.087375574 0.031566963 0.037763797 0.31746116 -0.16526277
0.0059217867 -0.1572422 -0.16335303 0.0938935 -0.34939346 0.27820292 -0.26766846 0.06985295
0.09970202 -0.13044058 0.12299887 -0.05580934 0.08298895 -0.3464787 -0.10116463 -0.2367324
-0.028130386 0.28250504 0.018860077 0.13504699 -0.19810289 -0.03522993 0.055104766 -0.16063601
-0.08664098 0.032460585 -0.10811442 -0.026096232 -0.26111665 0.01611223 0.018816134 0.26845294
00000000: e98c 013f dcad a23c 8413 9abd b4d5 5e3e
00000010: f7ba 4cbe b8ee 34bd 4412 5e3e 87cb 1c3e
00000020: 9bb7 9bbd 931b 59bd 2708 9cbb 6f10 d3bd
00000030: f8b7 e7be 4c56 dabe e64d 163d de24 9dbe
00000040: 7001 3dbd 9651 9c3e e1d7 373e 4c38 00be
00000050: 9bb8 84be 5f1a 5e3d 7871 543d e208 993d
00000060: 041a 8d3d 280c 92be 20a5 88be fa3a 63be
00000070: 0aba fcbc 8f80 bbbd dc0d 71ba 9c83 92be
00000080: adb8 abbe e590 82be 4d70 70be 0259 83bd
00000090: 7269 2abe b797 a0be e25e 0a3e ce90 613e
000000a0: 2bea 9e3e b866 013f 6dbb b1bb 0433 a83c
000000b0: 02ed 8c3d f84e babe 6211 00be 5cf1 50be
000000c0: f378 98be 070b 983c d985 903d b116 a2bd
000000d0: f386 a4bc 67a6 793e 7d0d 433d 4959 ad3e
000000e0: 5c1e a33d 7234 e7bd 643a 81be e0e2 583e
000000f0: cf19 9b3e 0392 babe 37ef c8be ec42 443d
00000100: 8b0a c93b 9ac4 993c d1dc d2bd 3815 34bd
00000110: d755 f3bd fb02 d2be 0508 863e 5482 813e
00000120: b8c9 f2bd 69e3 a33e bf58 0abe 4198 903d
00000130: a324 0abe dec4 97bd ea75 34be b0ce 47bb
00000140: 781c 3d3d faff bcbd 3176 873e 02e6 90be
00000150: eaf5 9abd f99e c2be 401c 2c3e 9e81 573b
00000160: 456c 303e b896 70be 8c47 debd fbbd a2be
00000170: 8790 043e d844 463e 2b84 c43d 3826 eebd
00000180: 4825 d23d ef8a 6abe d8a4 633e 1dd7 16bd
00000190: f364 ad3e 2fec 46be 81b6 43be 24c1 b43c
000001a0: 38bd d73d f1d0 9e3e a81f cebe d30c 953e
000001b0: 9e02 b73d 985e 33be 556c 92be 5be6 d63c
000001c0: 3fcf 8fbe 1c89 943b 18cc edbd c3ba 08be
000001d0: 1ed8 cabd abae 803e 284c 07be 1a55 8dbe
000001e0: 67dc 403d 156c 8bbb 0f72 a2be 9744 a0be
000001f0: 005c 373e de13 9bbe bbeb 063e 6e02 98bc
00000200: ec02 1b3e 37f1 bbbd 0995 50be a643 4bbe
00000210: ecf2 d1be 664d fabb b43b 36be 18a5 993e
00000220: 4e16 e33e 2e96 a13e c752 6f3c d425 20be
00000230: fd88 163e 8de8 98be 91b3 93be aac4 1a3e
00000240: 0c89 aa3d 8234 483e 1a07 c03e 58a3 6bbe
00000250: 2533 db3d 33ca a2bd 51e5 753e 1bd1 903c
00000260: 0230 83be 5a63 0ebe 1427 973d f369 b4bd
00000270: 29f2 3c3e 8cde 2ebe e1b3 a6be 4765 05be
00000280: a6ea 663d 9ae7 1b3e 8d96 e13b 42bd 88be
00000290: de25 ad3e c440 5dbe 7a9f 7a3e 3a65 8dbe
000002a0: 18bb 8e3d a330 c9be 4397 b93e afb9 c8bc
000002b0: 7d85 063e f97a 6f3e ba19 9d3c 1476 e63c
000002c0: 1fe0 a0be 1b42 553e 2953 b93e 6852 a1be
000002d0: 9810 163d 19e2 79be 31ee d3bc 622b a7be
000002e0: 38e2 4c3e 51ba 733e df39 65be 05a9 31be
000002f0: 8ac6 c7bd 089f 183e fd59 5b3b 68cf 0abe
00000300: 0375 be3e f44c dd3d 2caf 4c3d 9c23 6b3e
00000310: 75b1 d7be 2587 313d 085a 653d cecd 5a3e
00000320: 0245 15be 09ac 8a3e a520 50bc 420c 4bbd
00000330: 3577 2fbe adfa a2be 987b 37be e196 f33d
00000340: 2ad5 f8bd 1bd1 05bd 3b63 02be a5ef 9a3c
00000350: fb32 c23d 80f7 243e d71d 26be cfc5 5f3e
00000360: a074 143d 0947 233e 39f1 a23d f7f1 b2bd
00000370: 5c4c 013d 36ae 1a3d 458a a23e a53a 29be
00000380: 8c0b c23b 1904 21be 0446 27be 3c4b c03d
00000390: b3e3 b2be 9d70 8e3e d70b 89be 100f 8f3d
000003a0: 9330 cc3d 3792 05be d5e6 fb3d 5698 64bd
000003b0: 1cf6 a93d a865 b1be 672f cfbd fa69 72be
000003c0: b271 e6bc 80a4 903e 7380 9a3c c249 0a3e
000003d0: 7cdb 4abe 424d 10bd 89b5 613d c47d 24be
000003e0: d370 b1bd 64f5 043d 186b ddbd c4c7 d5bc
000003f0: 15b1 85be ccfd 833c 4b24 9a3c aa72 893e

lstm.bias_ih_l1 f4 [32]
-0.163738 0.05121487 0.11227427 -0.20284548 0.2960008 0.056945387 0.23531058 -0.21050419
0.42546466 0.2893322 -0.07341957 -0.3437684 0.26981467 -0.11760382 0.21653059 -0.08827162
0.1323527 0.24242462 -0.12652276 0.019996604 -0.069237955 0.21414974 0.10038323 -0.045429625
0.3340442 -0.023630159 -0.30150288 -0.32143843 0.2868234 0.30218723 0.11419392 -0.055454433
00000000: efaa 27be afc6 513d 0df0 e53d bab6 4fbe
00000010: 6b8d 973e 913f 693d 42f5 703e 698e 57be
00000020: 81d6 d93e 5a23 943e 005d 96bd 6902 b0be
00000030: 2625 8a3e 46da f0bd 32ba 5d3e c0c7 b4bd
00000040: 7787 073e 293e 783e 2f8f 01be ebcf a33c
00000050: a1cc 8dbd 124a 5b3e b995 cd3d 6a14 3abd
00000060: d707 ab3e 0994 c1bc 965e 9abe 9493 a4be
00000070: 84da 923e 49b8 9a3e 80de e93d 3024 63bd

lstm.bias_hh_l1 f4 [32]
0.3641192 -0.011939133 0.054494567 0.18421501 -0.13377579 -0.15742078 -0.03532847 -0.012274396
-0.040578436 0.04750996 -0.0841733 -0.25079462 0.3711397 0.44537473 0.16295305 -0.17750655
0.3917445 0.371471 -0.36818793 0.27066106 -0.13014601 -0.082783215 0.013423767 -0.0024942872
-0.10870251 -0.116512455 0.2467631 -0.22396 0.36443895 -0.06825917 -0.34756482 -0.04769604
00000000: d56d ba3e 5a9c 43bc b235 5f3d dca2 3c3e
00000010: 85fc 08be ea32 21be 96b4 10bd 8c1a 49bc
00000020: 9335 26bd ce99 423d 0d63 acbd 2768 80be
00000030: 0606 be3e 2808 e43e 2add 263e 47c4 35be
00000040: bc92 c83e 7231 be3e 2183 bcbe 1694 8a3e
00000050: ff44 05be 3f8a a9bd 5cef 5b3c 3277 23bb
00000060: 6c9f debd 159e eebd 77af 7c3e c555 65be
00000070: be97 ba3e 77cb 8bbd 04f4 b1be ec5c 43bd

fc.weight f4 [3, 8]
0.13408016 0.13416046 0.3181765 0.009773771 -0.20346792 -0.08470465 0.16955641 0.18014576
-0.30368695 -0.28908637 -0.118560426 -0.3906799 0.43161932 0.45902753 0.19366843 -0.32218385
0.16673464 0.34354034 -0.2862424 -0.2108206 0.17928836 -0.101669945 -0.24049023 0.28761935
00000000: 4f4c 093e 5c61 093e 08e8 a23e 2b22 203c
00000010: e559 50be a279 adbd 32a0 2d3e 2178 383e
00000020: db7c 9bbe 2103 94be cfcf f2bd 3207 c8be
00000030: 35fd dc3e a805 eb3e 0451 463e 48f5 a4be
00000040: 7cbc 2a3e 85e4 af3e 5d8e 92be 5be1 57be
00000050: 5e97 373e 5538 d0bd 1243 76be d842 933e

fc.bias f4 [3]
0.27759355 -0.31871593 -0.1437967
00000000: be20 8e3e bc2e a3be 713f 13be
