checkpoint/best_model3.pt (torch, 10416 bytes, 10 tensors)

lstm.weight_ih_l0 f4 [32, 34]
00000000: 1edb ba3d a840 d53d bcb5 983e 79fe babd
00000010: bd45 c73e 5664 4dbe 4382 7abe 71d3 b4be
00000020: b54d 1bbe b3f2 17bc e891 ab3d eda4 fa3b
00000030: 610a 053e 77f3 b4be 599d ae3e eceb c7bd
00000040: bd00 4c3e e07c b83e c7d6 433e 88ed 0abe
00000050: b7bb 7ebe 99c7 32bd c910 8cbc b31f f83d
00000060: f903 613e 27cf 0f3e 593e 9cbe ca8b de3d
00000070: 5bc6 3cbe 9815 c9bc f90f 5e3e 770b 97be
00000080: 523c 03be d15b a23e 4f9d c8be 4fef 7abe
00000090: b3a6 babe 1a71 05be db84 e23c e350 e63d
000000a0: 4dca a0be af41 433e 3fe1 ac3d 97ce 8f3e
000000b0: aa94 1f3e eb4f 49be b267 e73d c967 313e
000000c0: fd76 b33c 40bb 3abe 90f3 07be efd5 c8bd
000000d0: 9ba9 b93e d55c 163e 4663 a6be c901 273e
000000e0: a1e0 c13e 0d5c 3ebe 714c 0cbe d1d1 05be
000000f0: 8233 9f3e 2b21 6b3e 2b8b 373e 8510 a9bd
00000100: 6a3f a5be 9ce1 573e e3ce 98be 9f20 9a3e
00000110: 5cb0 c13d 1699 243e 6f50 ce3c 6310 c13d
00000120: 77d6 97bb 9825 babe 46dc 1e3e 3d31 b3be
00000130: ef64 0dbe c1fd b93d 87a2 0abe 58f9 073e
00000140: efbd fd3d 0b40 463e 4b2a 803d 0098 26bd
00000150: e3dd 81bc c1a2 363d 39e8 2d3c bfb1 95bd
00000160: 3661 82be 9e81 69be 10d3 b23d 401a 89be
00000170: 74c5 56be 089f b3bc dce9 57bc 2acc 533e
00000180: b4ff 11bd e547 40be 5b67 f73d 2657 17be
00000190: c45f 2d3e a88b fbbd 7a1b 8bbe 6986 5e3e
000001a0: 119b 0ebe e062 59be a5cc 35be 4460 49be
000001b0: 8fc4 1b3d 7268 f3bd fa0c 03be a03b 0f3e
000001c0: 50bf 54bd 88dc 173c 6895 c1bd 40ec 2abe
000001d0: a08a acbd 6746 09be fa48 c0bc ae7e 63be
000001e0: 0dce b83e 8680 e4bd 06df 56bd 7b89 903e
000001f0: 7975 9abe 9f49 913e c769 38be 329d 91bd
00000200: fa10 153e 7d78 b6bc 4a2c 7d3e cb9e 20be
00000210: 31fb babe 3992 b4be 3f2a 833e 574a 91bd
00000220: 076b e2bc ea94 2b3d 8af4 763e 3a82 e23d
00000230: 571b 5fbe e177 853d 24ad 2d3d beba bbbe
00000240: 2b12 993e 3d6a 6abd df80 26be ae3b 323b
00000250: 0444 99be 4f6e 4d3e 7642 0ebe 245b 14be
00000260: fc03 203e 6bbd 883e fddc ac3e 34b9 813d
00000270: 87de e3bc 4e8e f5bd 76b5 88be 4d08 89be
00000280: ad1c 2ebd 081b 6ebe eb62 d7bd f3bc 7a3e
00000290: d00a 013c 3fe2 603e 091e e73c a51b 8e3d
000002a0: dd13 863e e435 87be 9d11 8c3e 30d5 a23e
000002b0: 11b3 bd3e ea79 c0bd f6da 973e efbb a3bd
000002c0: cd8e 71be f7db 8b3e c1ab 37be 0e34 77be
000002d0: 9f94 783d b089 95bd cfe9 aa3e b314 9ebe
000002e0: cdf2 d53e 2e2f d23b 2e37 03be 863c 703e
000002f0: f4cf d33c 1177 853e 6e81 b1bc 21d9 9a3e
00000300: 1fc2 773e b921 c43d 3c1a de3d 2fa4 4c3e
00000310: d42c aebd 7b1d b3bd ce32 9cbe 7d8d a8bd
00000320: 4b03 e83d 5b1b c93d 2f17 edbd 825a 1abe
00000330: acff 883d 3245 a0be 4e79 03be ad18 893e
00000340: 9cab 613d 3c3b 853c 29c1 4bbe 6501 883e
00000350: 5763 833e d129 30bd 8406 d03e d6d1 86be
00000360: d370 633d d29a e2bd c396 213e b762 92bd
00000370: 0517 c33c 209d 6ebe a159 b53d 7509 d0bb
00000380: a644 3d3e 803e bf3d 0fc9 b03e 6455 b43e
00000390: 6a7f 553d 6457 033e 45f5 3bbd bd75 3dbe
000003a0: 38f5 e5bd 782e 843e bf3d 60be f642 89be
000003b0: 9da9 acbe 3ab0 cf3e aa57 a23e 4fba 85bd
000003c0: 729a ef3c 738f 01be 1296 c73e aa08 4dbe
000003d0: 5c07 85bd a0ee bf3d 5953 5cbe 0d0c 56be
000003e0: 61eb 5fbe ffb1 ed3d 1873 bd3d 1419 953e
000003f0: 58af 303e a570 cbbd 0a15 58bc 7cc9 8abe
0.091238245 0.10412723 0.29826152 -0.09130568 0.38920394 -0.20057806 -0.24463753 -0.35317567
-0.15166362 -0.009274173 0.08377439 0.007649055 0.1299224 -0.35342 0.34104422 -0.097617954
0.19922157 0.36032772 0.191249 -0.13567173 -0.24876295 -0.043647382 -0.017097848 0.12115421
0.21974172 0.14043866 -0.30516317 0.108665064 -0.18435042 -0.02454643 0.2168578 -0.29500934
-0.12815979 0.31710675 -0.39182517 -0.24505351 -0.36455306 -0.13031426 0.027651241 0.11245897
-0.31404343 0.19068025 0.084414 0.28087303 0.15584055 -0.19659393 0.11299075 0.17324747
0.021907324 -0.18235493 -0.13276505 -0.098064296 0.3626221 0.1468385 -0.32497615 0.16309275
0.3786669 -0.18589802 -0.13701035 -0.1306832 0.31093985 0.22961871 0.17924182 -0.08255104
-0.32274944 0.21082157 -0.29845342 0.30103013 0.09457466 0.16074023 0.025184838 0.09426954
-0.0046337205 -0.36356807 0.15513715 -0.34998503 -0.13808034 0.09081603 -0.13538562 0.13278711
0.123897426 0.19360368 0.06258067 -0.040672302 -0.015852874 0.044588808 0.010614448 -0.07309293
-0.2546479 -0.22803351 0.08731663 -0.2677784 -0.2097376 -0.021926418 -0.013178315 0.20683351
-0.035644248 -0.18777426 0.1208026 -0.14779338 0.16931063 -0.12282497 -0.271694 0.21730961
-0.1392634 -0.21229124 -0.17753847 -0.19665629 0.03802925 -0.11885156 -0.12797919 0.13987589
-0.051940262 0.009268887 -0.09452325 -0.16691685 -0.08424878 -0.13405763 -0.023472298 -0.22216293
0.36094704 -0.111573264 -0.052458785 0.2822989 -0.3016775 0.2837648 -0.18009101 -0.07110061
0.14557257 -0.02227425 0.24723926 -0.15685575 -0.3651977 -0.3526781 0.2561817 -0.07094257
-0.027638925 0.041890062 0.24116722 0.11059995 -0.21787773 0.06517006 0.042401448 -0.3666591
0.29896674 -0.057230223 -0.16260098 0.0027196216 -0.29934704 0.2006161 -0.1389254 -0.14487892
0.1562652 0.26707014 0.3376235 0.06334153 -0.02781607 -0.11990033 -0.26700944 -0.26764145
-0.042507816 -0.23252499 -0.10516914 0.24486141 0.007876113 0.21961306 0.028212564 0.069388665
0.2618703 -0.26408303 0.27357188 0.31803274 0.3705068 -0.09398253 0.2965924 -0.0799483
-0.2358963 0.27316257 -0.17936613 -0.24140951 0.06068861 -0.073016524 0.33381507 -0.30875167
0.41786805 0.0064143157 -0.12814018 0.23460588 0.025855996 0.26067403 -0.021668162 0.3024378
0.24195145 0.095767446 0.108448476 0.19984506 -0.08504644 -0.08745857 -0.3050751 -0.08230112
0.11328753 0.09819671 -0.115766875 -0.15073588 0.066893905 -0.31302792 -0.12839243 0.2677664
0.0550953 0.016263597 -0.19897904 0.26563564 0.25661728 -0.04300863 0.4062997 -0.26331967
0.05552752 -0.11064686 0.15780167 -0.071477346 0.023814688 -0.23302126 0.08854986 -0.0063487836
0.18483219 0.09338093 0.34528396 0.35221398 0.052123465 0.12826306 -0.045888204 -0.18501945
-0.112284124 0.25816703 -0.21898554 -0.268089 -0.33723155 0.40564138 0.31707507 -0.06529676
0.02924845 -0.12652378 0.38981682 -0.20022836 -0.06495544 0.09371686 -0.2151617 -0.20903035
-0.21867134 0.11606216 0.09250468 0.29120696 0.17254388 -0.099335946 -0.01318861 -0.27106845

lstm.weight_hh_l0 f4 [32, 8]
00000000: 2fd6 bb3e bc4d 853c d7a3 543e 74c0 203e
00000010: 7630 e83c 1545 0dbe 2f27 77be a629 0f3d
00000020: f968 0bbe 2937 c83e d436 423c cc50 93bd
00000030: 2e23 e3bd baf4 863e 9c61 4dbe 1fbe 143d
00000040: a355 ce3e 1fbc 3e3e b5b0 25be af42 14be
00000050: aae7 323e 33c7 29bd e23f 9fbd 2a52 21bd
00000060: 65f5 c33e dc75 09be ff31 a13e 6b62 90be
00000070: a475 c6bd 159d cbbe 0207 d0be 06c3 683e
00000080: ae98 093e c05c 6c3e dd1e 1a3e 1cd6 05be
00000090: 366c 22be b04e 3b3e b691 76be a151 aebe
000000a0: 0a9f 933e c462 303e e62b 1d3d acb7 8ebc
000000b0: d9e1 953d 8d2b f2bd 9664 d93d e6da d73d
000000c0: 074e c4bd 60df b33e 9754 bb3c b9ba 3e3d
000000d0: aab3 64bc 1ce7 14bd dcbf 0d3d a692 1dbe
000000e0: 381b 7f3d d904 59bd 64c4 92bd 3389 49bd
000000f0: eb77 05bd 3829 ddbd 8075 e3bd 506b 9c3e
00000100: 097e 0c3e f82a ebbd 1cf5 183e 5f22 8ebe
00000110: 4bcd 413e 6ced 203e 92bc 8c3d ae48 3c3e
00000120: 520c 19be 717c 58be 66bf a23e d65f a73e
00000130: b601 2cbd 122c 503d a910 0abc 8553 c13e
00000140: 162e 783e 73c2 aa3e eddd 2fbe c6e7 9cbd
00000150: 6555 713e 3872 9e3e ef9d e8bd 036d 913e
00000160: d0fb 213e 4bb9 163e 58bf bb3d 99a2 253e
00000170: bb8f 14bc 1504 993d bd72 44be b01e 193d
00000180: ee98 a1bd a656 803e eabb ac3d f6c7 283d
00000190: 6a4a 3bbe 96cb a43c a7f6 06be d44e a8bd
000001a0: 1968 34be e9ea 60be 6da2 a23e f66c 3b3e
000001b0: 6df3 073e 50d2 c0be 3824 bd3d c67a 9fbe
000001c0: 2d1c 973e d19e 4abe 4811 ca3e 95f4 0b3e
000001d0: d752 cc3c 5821 5abe 7db1 143e 5439 a8be
000001e0: e167 8b3e 2475 143e 00a3 703e 7e81 093e
000001f0: 72f3 7fbc c934 57be ca10 65be 43b6 93bd
00000200: 7821 7fbd 899d e33a aa8e 8e3e ba00 b9be
00000210: cfb7 bf3d 9ac2 ee3d 35d1 cbbd efcf 4a3e
00000220: ac27 ab3e b9b1 5a3e 2b45 243e 5ca3 373d
00000230: 20aa 2c3e 590d 81bd d5bf 2b3d fc87 423e
00000240: a06e 5d3e 8349 04bd 54af 123f 5056 84bb
00000250: 67bf 5a3d 9ca3 9fbe 047e f6bd e1c6 9d3e
00000260: 24e1 6e3e ddca 13be a1ed 58be b2fe 483e
00000270: a9e0 05be 0cc0 813e 3a65 bf3e 5446 133e
00000280: 0b7f 7dbe ca72 8ebe 1c2a 4b3d 3c8d 0cbe
00000290: 78ae f33d 2dd4 94bd 28b8 b93d 7c9b 70bc
000002a0: 7755 a03d 1feb a4be 35d2 433e 7234 40be
000002b0: 3a90 763e a697 7ebe 10d6 563e 190d 403e
000002c0: 89a3 9e3c 0f61 473e 1484 b5bd 2c8d a33e
000002d0: 5fb2 94be 7d03 c33b 8fdc 8d3d 1939 9f3e
000002e0: f21f 25be b394 6cbe 0ea6 8bbd b6ef 223e
000002f0: bd28 28be 800b 40bc fe60 553e 060b 7d3e
00000300: 39a6 983e 34c2 3d3e 2e5f f03e 88f3 90bd
00000310: 1645 8abe 149e a4be 4a9e d2be cb0e 913e
00000320: bea4 973e 0b59 53be 44b3 6cbe ab39 18bb
00000330: ae77 8e3c d0ac 873e 1823 babe 1270 f13c
00000340: c96d 083e 14db 38bd dcf0 34bb 1f53 97bd
00000350: 9cc4 37be b576 873e ac15 2cbe e75c 583d
00000360: 4d25 8dbd b74b c93e 87c5 b73d 68e4 bebe
00000370: 134b 37be 02c4 80bd 719d a9be 572b b9be
00000380: b22b eb3c e508 b43d 9fc6 e13e c6d7 803e
00000390: 250f 9cbe 98dd 8e3c 1e76 6b3e 0914 803c
000003a0: 449e 8f3e fac8 86be d8fa b6bd fd64 b9be
000003b0: 619b a4be 0e14 893e d87d a0be 8dac a7be
000003c0: 1eae da3e f500 a93e 9d56 eb3e 98de a0be
000003d0: df01 54be ddc9 553c a359 edbe 876e 993c
000003e0: 0890 14be aabf 30be 7dae b43e 96da 2abd
000003f0: 328c 943e 0902 5e3e f823 8abe 20f7 623e
0.36686847 0.016272418 0.20765625 0.15698415 0.02834342 -0.13795884 -0.24136041 0.03495183
-0.13614263 0.39104584 0.011853892 -0.07193145 -0.11090694 0.26358587 -0.20056766 0.036314126
0.4029971 0.1862645 -0.1618069 -0.14478563 0.17471185 -0.041449737 -0.077758566 -0.039385
0.3827316 -0.13423866 0.31483456 -0.28200087 -0.09690407 -0.39768282 -0.40630347 0.22730646
0.13437149 0.23082256 0.15050836 -0.13069957 -0.15861592 0.18291736 -0.24079022 -0.34046653
0.28832275 0.17225176 0.038371943 -0.017421566 0.07318468 -0.11824713 0.10614888 0.105397984
-0.09585195 0.3513136 0.022867484 0.04656479 -0.013958851 -0.036353216 0.0346068 -0.15387973
0.062281817 -0.05298314 -0.07166365 -0.04920311 -0.032585066 -0.107988775 -0.11106396 0.30550623
0.13719954 -0.11482805 0.14937252 -0.27760598 0.1892597 0.1571557 0.068719044 0.183871
-0.14946106 -0.2114122 0.3178665 0.32690305 -0.04199382 0.05082328 -0.008426824 0.37759033
0.2423633 0.33351478 -0.17174502 -0.07661395 0.23567732 0.30946517 -0.113582484 0.28403482
0.15818715 0.14719121 0.09167355 0.16175307 -0.009067471 0.07471482 -0.19184394 0.03738278
-0.07890497 0.25066108 0.08434279 0.041206323 -0.18290105 0.020116609 -0.13180028 -0.0821816
-0.17617835 -0.21964611 0.31764546 0.18303284 0.13276453 -0.37660456 0.09235424 -0.31148356
0.29513684 -0.19787146 0.3946631 0.1366752 0.024941845 -0.21301782 0.14520831 -0.32856238
0.2722769 0.1449781 0.2349968 0.13428304 -0.015622007 -0.2101623 -0.22369686 -0.07212498
-0.062287778 0.0017365675 0.2784322 -0.36133367 0.093612306 0.11658211 -0.099520124 0.19805883
0.33428705 0.21356858 0.1604201 0.044833526 0.16861773 -0.06301374 0.041930992 0.18997186
0.21624231 -0.03229667 0.5729878 -0.0040386096 0.05340519 -0.31179512 -0.12035754 0.30815795
0.23328072 -0.14432855 -0.21184398 0.19628409 -0.13073982 0.25341833 0.37381917 0.14382297
-0.24755494 -0.27821952 0.049600706 -0.13725752 0.11898512 -0.07267032 0.09068328 -0.014685508
0.07828801 -0.32210633 0.19123156 -0.18770006 0.24078456 -0.24862537 0.20980096 0.18754996
0.019365089 0.19470619 -0.088630825 0.31943643 -0.29042336 0.0059513436 0.06926834 0.3109825
-0.16125467 -0.23103599 -0.06818782 0.15911755 -0.1642179 -0.011721492 0.20837781 0.24711236
0.29814318 0.18531114 0.46947616 -0.070777 -0.27005833 -0.32151854 -0.4113639 0.283316
0.29617876 -0.20639436 -0.2311526 -0.0023227732 0.017391052 0.26499033 -0.363549 0.029472385
0.1332313 -0.045130804 -0.0027609384 -0.07388901 -0.17946094 0.26457754 -0.16805142 0.052822974
-0.0689188 0.39315578 0.08973222 -0.37283635 -0.17899732 -0.062873855 -0.3312793 -0.36165878
0.028707359 0.08790759 0.44096848 0.25164622 -0.30480304 0.017439649 0.22994277 0.015634554
0.28050435 -0.26325208 -0.089345634 -0.3620986 -0.32149795 0.26773113 -0.3134601 -0.32748833
0.42710966 0.33008543 0.45964518 -0.31419826 -0.20703839 0.013048616 -0.4635745 0.018729461
-0.14508069 -0.17260614 0.35289374 -0.041712366 0.2901321 0.21680464 -0.26980567 0.22164583

lstm.bias_ih_l0 f4 [32]
00000000: 2d34 79bb c80d 693e 8ccd 923e b714 943e
00000010: cfb9 9f3d 57d5 c1bd a5af 973e a3a8 093e
00000020: 0696 063d e1bf 9f3e 8568 543e 27be 81be
00000030: ee83 f43d c012 523d a4a1 8e3e a30e 78be
00000040: 9459 963d e4bb 433d cbe0 383e 6b47 8a3e
00000050: 5a35 f8bd ced9 e9bd 1438 c0be cb58 c4bd
00000060: f853 213d 86e1 243e 04fe 9f3d 7288 a53e
00000070: 40ba d53e 9ac6 953e 5aa0 65be 26af 8bbe
-0.0038025484 0.22759163 0.28672445 0.28922054 0.07799112 -0.094645195 0.29626194 0.13443236
0.032857917 0.3120108 0.20742996 -0.25340387 0.11939226 0.051287413 0.27857697 -0.24224333
0.073413044 0.04778661 0.18054502 0.27007613 -0.12119551 -0.11418496 -0.37542784 -0.095872484
0.03938672 0.16101655 0.078121215 0.32330662 0.4174366 0.29253083 -0.2242445 -0.27282065

lstm.bias_hh_l0 f4 [32]
00000000: 9ff4 c43e 2dd7 88be f002 fb3d 4364 d8bc
00000010: 2ec0 b63e 6a58 123d b4ff a53e e3e6 80be
00000020: 2973 52be bd5b 4d3e 97d9 363e 66f1 543e
00000030: 5eb4 473e a79d 4dbd 65bb 833e d35c 833e
00000040: 5766 12be dbe2 66be f8dc 2ebe 61b6 183d
00000050: e664 94be 1d9f 1cbe 7d5a 5f3e b4ac 8dbe
00000060: d23b 183e 20b2 673b a6a5 5dbe 7922 2b3e
00000070: 1399 bb3d 3028 9e3e bf0a 853e 3dd6 553e
0.3846788 -0.26726666 0.1225642 -0.026414996 0.35693496 0.03572885 0.32421649 -0.25176153
-0.20551743 0.20054527 0.17856441 0.20795211 0.19502398 -0.050199177 0.25728908 0.25656757
-0.14296852 -0.22547476 -0.1707648 0.037283305 -0.2898323 -0.15295072 0.21811862 -0.27670825
0.1486657 0.0035353974 -0.21645221 0.16712369 0.09160056 0.30890036 0.2598476 0.20882507

lstm.weight_ih_l1 f4 [32, 8]
00000000: b70b 02be 42ec cabd c21a 56bc 58dc 31be
00000010: c185 fabd e010 a23e 6d73 af3e 49a0 5fbe
00000020: 3220 963e 5f4c d43e bcdc b03d b611 4dbe
00000030: b0b9 103d 0ef4 b2be 905e 85bd 2de5 2ebe
00000040: 3383 b13d d915 1b3e e922 c43d 7f1f a3be
00000050: 425c a1be 50d7 babe 182c d0be 5297 bfbe
00000060: eb12 683e adc6 643e 7c31 f23e c693 74be
00000070: 9e6e e4bc de0e f3bd 4424 8dbe f5a2 a4be
00000080: 1803 c13e f0e5 d53e 1daa e13e ed86 a83d
00000090: e370 70bd 3f07 bcbc 13f5 6fbe 3f31 b3be
000000a0: 82d6 32be 34ea ab3e 3f18 cebd 59c5 84be
000000b0: 3cc3 bebe 3855 95be 4fec 913d c7fc dcbc
000000c0: 53a7 0cba 93ff 103e 7235 993e fffd 293e
000000d0: 6321 1ebe d633 c43e 4bd7 7f3c 2e38 b73e
000000e0: 858e aabc 2402 afbe 1032 c9bd 810b 9d3e
000000f0: 14db 8a3e b390 e53a 9d98 1c3e c5ee 093e
00000100: f5a4 93bd 8e40 023c 95b1 22bd a3a2 9d3e
00000110: e25c 85bc 1fb7 b1bd c564 0c3c 44e9 8bbe
00000120: 54ac a33d 411a 7dbe 95f5 cc3e b496 8ebe
00000130: d717 f73c cb2a 17bd 5f71 8bbc 888d 1bbe
00000140: 1a82 0fbe 6346 3d3e 2297 c6bd 77d5 313e
00000150: 0f8a 283d d883 3f3e 90f6 8fbd 8baf e0be
00000160: 967c b3bd 9510 d13d 7c74 183e c35d 693e
00000170: fb65 64be fa82 a1be 5f8f 733d 7b9e d4be
00000180: 5e8f 3cbe 2bae 3a3e 445f 6c3e 3299 6bbe
00000190: 029e 8fbe ad91 0a3e 959a 6b3d 9d27 91be
000001a0: 9be8 bfbd ba6e 89bd 11f8 febd beff a6bd
000001b0: 0b2c 8fbe 2ec4 49be 78ab fdbd f8b5 0fbe
000001c0: 7164 c8bd d27c 31bd 01e9 883e d2c3 4dbe
000001d0: eba0 acbe af66 e43d 3d44 cabc b423 6f3d
000001e0: 0801 903c ccce c539 4aed 4dbe 2ac7 a33e
000001f0: 91fe c93e 73dd ccbd f58c 0d3e 698a 213e
00000200: d0e1 493e aad0 0f3e bc9c 88bc 5091 973e
00000210: 3818 853b 9a44 6b3e 6d71 d03c befe 523e
00000220: afcf d8be aad2 be3c 17ff cdbe 581c 603e
00000230: c3be 8d3e ffa0 99bc 6d3f 6e3d 9640 bc3e
00000240: 5995 1e3e 96a8 b83e 6bcb 63be a773 8fbe
00000250: 7605 4b3e 5b73 22be bec1 aabe 522b 0c3d
00000260: af0e d7be 1569 9ebe dfcb 7d3d b7cd 3cbe
00000270: d86f 913e 1922 803e ebdd a23d 9545 93be
00000280: 44e8 37be d01b 86be 09e0 8dbe 2e83 0dbe
00000290: f675 59bd f88e a93e e18b 983e e2e1 e3bd
000002a0: 9abc b03e edef 9d3e 752e d93e 1ed4 9abe
000002b0: 2c5a 14be fe89 19bd 16cd 87be 58b6 f6bd
000002c0: a121 81bd e7a5 febd 2e0b 27be 81e3 633e
000002d0: bf28 653e 4db6 873b 1160 d03c 13c7 c4be
000002e0: 8de2 67be f6fa 9c3d 3e3f a83e 975c d73d
000002f0: a3a0 6f3e 347f 8f3e 1f1b df3d 67a8 543e
00000300: 1cce 563e be75 acbe d10c 4d3e 7012 71be
00000310: f954 84be c0f5 a4be 1028 c5bd 734e 66be
00000320: b1a6 e73e fe53 efbc 49e5 1abe 5450 adbe
00000330: b2e8 0cbe b43f dcbe 5072 e3be bf4e 0d3e
00000340: 7851 b43d abb7 c0bc 7490 a63e 1697 89be
00000350: 08e2 95be 70bd 8abe dcb0 f43c 7c81 8bbe
00000360: 986d ce3e 441e 4c3e e303 50be 532d 883e
00000370: ae2e 58be 5d72 4dbd 16cc a9be b7e6 b3be
00000380: 8dee 9b3c 39dc e6bc 4bed 1dbe 4d63 bcbe
00000390: c7c3 6abe 866f 4a3d fc0b 73bd cbe2 b63d
000003a0: ab9a 9bbd 11b1 ea3e ed02 8a3e 319c afbe
000003b0: 3947 89bd ab76 e33d 7a1e febd 2514 77be
000003c0: 79a5 033e cf7f b5be c312 b73d 6845 9e3e
000003d0: 6211 893d 5910 933e f8f7 143e 9282 503e
000003e0: baa7 6a3e 6834 6bbd 2c69 923e 5d65 87be
000003f0: ccdc ad3c e863 e5bd 1f54 6fbe d2ed c3bd
-0.12699781 -0.09908344 -0.013067903 -0.1736921 -0.12232543 0.316535 0.3426775 -0.21838488
0.29321438 0.41464517 0.08635852 -0.20026287 0.035333335 -0.34951824 -0.06512177 -0.17079611
0.086676024 0.15145053 0.09576971 -0.31859967 -0.315157 -0.36492395 -0.4065864 -0.37420136
0.22663467 0.22341414 0.4730338 -0.23884496 -0.027884778 -0.1186807 -0.2756673 -0.32155576
0.37697673 0.4177699 0.440751 0.0822886 -0.058701407 -0.022952674 -0.23433332 -0.3499851
-0.1746464 0.3357712 -0.10063218 -0.25931814 -0.37258327 -0.2916658 0.071251504 -0.026976002
-0.00053655094 0.14159994 0.29923588 0.16600798 -0.15442424 0.38320798 0.015615295 0.3578505
-0.020819912 -0.3418132 -0.09824002 0.3067284 0.27120268 0.0017514437 0.15292592 0.1346999
-0.072091974 0.007949961 -0.039720137 0.30788144 -0.016279642 -0.08677506 0.008568947 -0.27326405
0.07991853 -0.24717046 0.40031114 -0.27849352 0.030162735 -0.036906045 -0.017021833 -0.15190709
-0.14014474 0.18483882 -0.09696795 0.17366587 0.041147288 0.18702638 -0.0702945 -0.4388393
-0.08763997 0.10208241 0.14888185 0.22789674 -0.22304527 -0.3154524 0.0594629 -0.4152716
-0.18414065 0.18230502 0.23083216 -0.23007658 -0.28050238 0.13532133 0.057520468 -0.28350535
-0.09370538 -0.067105725 -0.12449659 -0.08154248 -0.2796329 -0.19703743 -0.12386221 -0.1403426
-0.09784783 -0.04333193 0.26740268 -0.20094231 -0.3371652 0.11152398 -0.024690742 0.05838366
0.017578617 0.00037728844 -0.2011005 0.31987888 0.3945203 -0.100031756 0.13823302 0.15775456
0.19715047 0.14044443 -0.0166763 0.29603052 0.004061725 0.22975388 0.02544471 0.20604989
-0.4234595 0.023293812 -0.4023368 0.21885812 0.27684602 -0.018753527 0.058165956 0.36768025
0.15486659 0.3606612 -0.22245567 -0.28017923 0.19826302 -0.15864317 -0.3335094 0.034221
-0.4200339 -0.30939546 0.061962005 -0.18437849 0.28405643 0.25026014 0.07952484 -0.28764024
-0.17959696 -0.26193094 -0.27709988 -0.13819572 -0.053091012 0.3311689 0.2979422 -0.11127068
0.34518892 0.3084711 0.42418256 -0.30239958 -0.14487523 -0.037485115 -0.26523656 -0.12046498
-0.06305242 -0.12433987 -0.16312858 0.22254755 0.22378825 0.004141605 0.025436433 -0.38433132
-0.22645016 0.076650545 0.3286075 0.10515707 0.23401122 0.28026736 0.10893845 0.20767365
0.20977062 -0.3368358 0.2002442 -0.2354219 -0.2584608 -0.32218742 -0.09626782 -0.22490864
0.45244363 -0.029214855 -0.15126528 -0.33850348 -0.13760641 -0.43017352 -0.4442315 0.1379957
0.088046014 -0.02352508 0.32532084 -0.26873082 -0.2927401 -0.27097654 0.02986949 -0.27247226
0.40317988 0.1993342 -0.20313983 0.2659708 -0.21111557 -0.050157893 -0.33163518 -0.3513696
0.019034648 -0.028181182 -0.15422551 -0.3679451 -0.22926246 0.049422763 -0.0593376 0.08929976
-0.0759786 0.45838216 0.26955357 -0.34298852 -0.06703038 0.111066185 -0.12408157 -0.24128778
0.12856092 -0.35449073 0.089391254 0.30912328 0.06692769 0.2872341 0.14547718 0.20362309
0.22915545 -0.057423025 0.28595865 -0.26444522 0.021223448 -0.11200696 -0.23371933 -0.09566845

lstm.weight_hh_l1 f4 [32, 8]
00000000: 1394 dcbb 6ab5 93be c80a 953e d009 8abe
00000010: 47c8 52be 057a 9bbe 802f 5dbd 46b6 92be
00000020: 7c97 19be 2915 573e 686c a53e b291 02be
00000030: e6f3 b43d 35c6 e83d 5a33 0bbe 0bf0 babd
00000040: 4203 ab3c 5a19 00bd f73d 373e 4580 18be
00000050: 77d3 a3be a3f3 683e db37 bfbe 73ef 91be
00000060: 5375 4fbd 2e9b 98bd d4bf 373d 43a2 9b3d
00000070: eebb 4fbd c7c4 fe3d a120 adbe 4cc1 47be
00000080: c29e b0be 8d65 aabe 1eb5 413c 8566 7c3e
00000090: 07ca 04be 3167 04be 4847 413c 22b4 2cbd
000000a0: a5a2 7dbe 012b 14be 4f73 f43e ea05 b63c
000000b0: de54 253e 9eff eb3e bdb2 98be 4df9 cebe
000000c0: 34d3 7e3e ddc9 ae3d 104d dfbd 97ab 2a3e
000000d0: df2f 913e e2aa 233e 15bd bf3e 0deb d6bc
000000e0: 56eb 86be 475e 6fbe 078b 7cbe bd9e fb3d
000000f0: ebb8 a8be eb3a 24bd ac46 b73e 5cc6 70be
00000100: 1166 ba3e a616 c33e fc48 8ebe 9949 753e
00000110: 75f3 333e 8ddc 9cbe 8469 83be 43d7 32be
00000120: 2fea e53d 0167 1bbe f360 7a3d e8d2 61be
00000130: 9911 6cbe 88a1 a73e 9e3d c83d aa5b dbbc
00000140: 0145 1e3e 9866 9bbe a781 35bd fb35 a2be
00000150: 823b 8c3b 88d2 dd3e 000c 9ebd 3afb 22be
00000160: e6e1 1d3c b177 b7bd ee2e 16be 2fab 463e
00000170: de24 34be 76fd 763e 14c5 423e fb57 703e
00000180: dbf0 aabd 60e9 65be 7c13 74be 9024 7ebe
00000190: ec3c c0be a7ef 78bd 8cda 9cbd 8053 69bd
000001a0: 6627 a8bc cfe3 5dbb c020 37be ac7e 59bd
000001b0: 91c9 4fbe 9049 403e 6797 bfbe 2378 b8be
000001c0: 43bb 0bbc a2f4 3cbe eed5 54be 19d6 c8bd
000001d0: 2ce3 cfbc d45f 16be cc65 4b3e 8e5c 103e
000001e0: 68f8 0dbe 93ed 9cbe 5823 a5be 7e09 98be
000001f0: 4f9c 83bd a6cd 2b3e a457 a53e 4ebe e9bd
00000200: f834 31be 3d2e b4be 1bf8 edbd c426 b63d
00000210: 91b1 dfbd 6aa4 97be 5f7e 3d3e fea5 fc3d
00000220: 1d1e 013e 3755 14bd d71b 6bbe de64 873d
00000230: 737f af3e ff97 a3be f293 863e 55f8 8ebe
00000240: 17b5 213e 3800 e0be 9998 103e ef9c 71bd
00000250: c7e3 a5bd 67ea 0fbe 39fc a53d 6f42 cebe
00000260: edac 4e3e 9be7 a83c 73ab edbd e4be 0ebc
00000270: 3364 833e dcff 34be 1e7c 893e fb79 173e
00000280: b965 c03c ae7b 413e a436 bcbe 8d0d 9a3e
00000290: 16cd 863e 077a dfbe 2827 763e 7b24 bd3e
000002a0: e461 babd 995f 693d 4314 4fbe 15d5 d53b
000002b0: 11e3 343e 07e8 af3e 498a 22be a888 a8bd
000002c0: b7f2 77be a3c0 1b3e 64e3 293d 6b56 90be
000002d0: e12f 4c3d 3356 eabd ec63 4ebe 10f7 cabe
000002e0: 01e4 1ebd badc 8e3e 7cd3 9b3b fb6f 743e
000002f0: c44f fc3d 8d7d 69be 9700 7abe 9111 293d
00000300: e86a 433b d5eb bd3e 99cc bd3d f6aa 123e
00000310: 8bf3 8ebe ba0e 8d3c 8a42 9f3e 22d4 23bd
00000320: 7d5d f83d 7d20 39bd 28af b13e 6974 a5be
00000330: 375c 6ebe d969 cbbd f98d a7bd 4e0f deba
00000340: 8dc8 6bbe 8964 7ebd f329 f03e f067 61be
00000350: 9028 c7be 5d1b c73e 5913 fabd 3fae 2f3e
00000360: cdde 8ebe 87e2 823d 821e 483d 7ff1 68be
00000370: 4daf 593e dbb0 923e 51e5 073e 33a4 df3d
00000380: 6253 7c3d 6a18 91bd 3aee 7f3e 83d0 cebd
00000390: c8b9 b83d c6b9 dc3e c6ce e43a 07d2 493d
000003a0: 8e2e 8dbd 80ce 013e 439a aa3d 7dc8 17be
000003b0: 35da bdbd 76ec 9f3d 1ca4 c43d d64e 413d
000003c0: 5135 893e e926 3cbe e8b9 b7be 553b d4bd
000003d0: b368 5c3e a5c5 763e d3d6 923d f832 6d3e
000003e0: 97f2 4a3c 2c6c 1c3e d052 783e cc88 97bc
000003f0: bbf1 91bd 3f4a b13e 803b d73d 9fde 80be
-0.006731519 -0.28849345 0.29109788 -0.2696061 -0.20584212 -0.3036653 -0.054000378 -0.2865469
-0.14999193 0.21004166 0.3230927 -0.12750891 0.088355824 0.1136593 -0.13593808 -0.09127816
0.020875577 -0.031274177 0.17894731 -0.14892681 -0.31997272 0.2274919 -0.37347302 -0.28502998
-0.050649 -0.07451473 0.044860676 0.07599308 -0.050716333 0.12439876 -0.33813956 -0.1950733
-0.34496123 -0.33280602 0.011822967 0.24648483 -0.12967692 -0.1292999 0.01179678 -0.042163976
-0.24769075 -0.1446953 0.47744223 0.022219617 0.16145656 0.46093458 -0.29823866 -0.40424576
0.24885255 0.08534596 -0.109033704 0.16667019 0.28356835 0.15983155 0.37448946 -0.026235128
-0.26351422 -0.23375808 -0.2466241 0.12286136 -0.3295358 -0.04009525 0.35796106 -0.23513168
0.36405995 0.38103217 -0.27790058 0.23953857 0.1757334 -0.30637017 -0.2566644 -0.17464928
0.112263076 -0.15176012 0.061127614 -0.2205311 -0.23053588 0.32740426 0.097773775 -0.026777107
0.1545601 -0.3035171 -0.0443131 -0.3168181 0.004279555 0.43324685 -0.077171326 -0.15916148
0.009636378 -0.08958376 -0.1466634 0.19401239 -0.17592189 0.24120125 0.19020492 0.23471062
-0.08346721 -0.22452307 -0.23835558 -0.24818635 -0.3754648 -0.060775425 -0.07658872 -0.056964397
-0.0205266 -0.0033857708 -0.17883587 -0.05309932 -0.20291735 0.18778062 -0.37420198 -0.36029157
-0.008528533 -0.18452695 -0.20784733 -0.09806461 -0.025376879 -0.14684993 0.19863051 0.14097807
-0.1386429 -0.30650005 -0.32253528 -0.29694742 -0.06426298 0.16777667 0.32293427 -0.11413251
-0.17305362 -0.35191527 -0.11619588 0.08894113 -0.1092254 -0.29617625 0.18505238 0.12336348
0.12609144 -0.03621408 -0.22959839 0.06611036 0.34276924 -0.319519 0.26284748 -0.27923837
0.15791737 -0.43750167 0.14120711 -0.058987554 -0.08100086 -0.14054261 0.08104748 -0.4028506
0.20183153 0.02061825 -0.11604967 -0.008712504 0.25662383 -0.17675728 0.26852506 0.14792626
0.023486005 0.18894836 -0.36760437 0.30088463 0.26328343 -0.43647787 0.24038374 0.36941895
-0.091007024 0.056975935 -0.20222573 0.0065256455 0.17664744 0.3435671 -0.15873064 -0.0822919
-0.24213682 0.15210204 0.041476622 -0.28190932 0.04985035 -0.114422224 -0.20155305 -0.3964162
-0.03879166 0.27902776 0.0047554355 0.23870842 0.123199016 -0.228018 -0.24414288 0.04127652
0.002981836 0.37093988 0.092675395 0.14323029 -0.27920184 0.017218936 0.31105453 -0.039997227
0.121272065 -0.045197 0.34703946 -0.32315376 -0.23277365 -0.09932298 -0.08181376 -0.0016941817
-0.23025723 -0.062107597 0.46907005 -0.22012305 -0.38898134 0.38888064 -0.122107215 0.17156313
-0.27904359 0.06390863 0.04885722 -0.22748373 0.21258278 0.28650555 0.13271071 0.109199904
0.061602958 -0.07084735 0.2499322 -0.10098364 0.0901981 0.43110484 0.0017456643 0.049272563
-0.06893645 0.1267643 0.08330204 -0.14822574 -0.09270135 0.07808773 0.09601614 0.047194324
0.2679849 -0.18374218 -0.35884023 -0.10362879 0.21524315 0.24098833 0.07169881 0.23163974
0.0123869395 0.1527564 0.2425034 -0.018497847 -0.071261846 0.34626958 0.105093956 -0.25169846

lstm.bias_ih_l1 f4 [32]
00000000: 6b1f 833e 4572 c73e 5b0f b73d d099 01be
00000010: 237e 34bd d042 09bd eda4 e2bd 6952 4fbd
00000020: 2d1e dabd 25bb 0abe 6027 b23e 5344 6e3e
00000030: ad7b c23e 456e 293e e5b6 873d ffbc a1be
00000040: 03bf 38bc a0aa a3be 4dc6 c93e f144 bdbe
00000050: 039b 2a3d def5 a43e e513 5ebe 270e 82bd
00000060: 3b93 a03e 22a0 e83e cb4e 52be e0aa 113e
00000070: e205 bd3e 9a10 8c3c 5827 883e 0f59 cebd
0.25609908 0.38954368 0.08938476 -0.12656331 -0.044065606 -0.033510983 -0.11066613 -0.0506157
-0.10650287 -0.13547952 0.34795666 0.23268251 0.37984982 0.1654597 0.06626681 -0.31589505
-0.0112760095 -0.31966114 0.39409104 -0.3696666 0.041651737 0.32218832 -0.21687277 -0.063503556
0.31362328 0.45434672 -0.2053787 0.1422534 0.3691855 0.01709776 0.26592517 -0.1007558

lstm.bias_hh_l1 f4 [32]
00000000: 7afa 3abe 1902 d13e da81 ebbd f15b 58bc
00000010: 26d6 303e 7fd8 df3e f784 943e a950 efbd
00000020: de81 b0bd 29a1 1abe e8d1 cbbd 4ea4 84bd
00000030: e2ee 6a3e dc45 4d3e dc82 03bd 9455 96be
00000040: 16ac 51be ddeb 083e 947b d1bd 4386 00bd
00000050: e611 693e aeb9 45be 065e 9bbe 84b0 cb3d
00000060: e7be a03e 523c bdbd 7e15 4fbc e7c8 543d
00000070: f6fe 8abd 3e06 7c3e 7076 26be aa06 7d3d
-0.18259612 0.40821913 -0.114993766 -0.013205514 0.17269191 0.4371986 0.29007694 -0.116853066
-0.0861852 -0.1510054 -0.09952146 -0.06476651 0.22942689 0.2004618 -0.03210722 -0.29362166
-0.20475802 0.13371225 -0.10228649 -0.031378042 0.22760734 -0.19309112 -0.30345172 0.09945777
0.31395647 -0.09240021 -0.0126394015 0.051949408 -0.06786911 0.24611756 -0.16256118 0.061773933

fc.weight f4 [3, 8]
00000000: 3140 98bd 106d c3be 61a9 c03e 6dfa f73c
00000010: bb6d ae3d 5ad5 d43e 96a6 7a3e 8867 b0be
00000020: 6a40 13bd 7b5a ce3d 9d29 52be 86bd b43e
00000030: 7fc3 023f a5bc afbc 149e 26bc 11b3 16be
00000040: bca5 24bd d0f0 42be ff5f c23d 06d7 3dbe
00000050: 77b6 54be bdee 873e 89e1 8bbe 29ac 863e
-0.074341185 -0.38169146 0.37629226 0.03027078 0.08517023 0.41569024 0.2447761 -0.34453988
-0.035950102 0.100758515 -0.20523687 0.35300845 0.51079553 -0.021452257 -0.010169525 -0.14716746
-0.04019712 -0.19037175 0.09490966 -0.18539056 -0.2077273 0.2654933 -0.27320507 0.26303223

fc.bias f4 [3]
00000000: 9fbb c13d 5f70 213e 3774 963e
0.09459614 0.15765522 0.2938554
