checkpoint/best_model.pt (torch, 10409 bytes, 10 tensors)

lstm.weight_ih_l0 f4 [32, 34]
00000000: cc4c 43be 6b3e 523e aadd a53d 099f c3bc
00000010: 5238 d13e f454 11be 445d 943e f07f 8e3e
00000020: 9f54 25be b128 bebe b480 8bbe 0802 dcbe
00000030: 0002 ca3e 56cd 163d e777 4c3e 7983 133d
00000040: 4981 22be 2b5a 24be ea06 1fbe cfbb 5b3e
00000050: 27e4 453e d41a bfbd c01d 25be 064a 68be
00000060: c765 d13e 76e2 013e 9df1 203e 76ba 25be
00000070: 1425 293e 9e02 c5be b355 d63d a6db 05be
00000080: 9e30 4e3e 7b2a e3bc 9b81 db3c b70d 9fbe
00000090: 9a91 a53d 1b5e bbbd 8b84 d53d 4270 62be
000000a0: a9cf b7be 8594 883e 7350 bcbe e34b 833d
000000b0: 6691 b3be 2f6e ebbd b2d5 cdbe 9e6a 643e
000000c0: c940 6b3e 309a 9a3e 6343 8a3e 0327 533e
000000d0: a1ff a4bd 6527 76be 89ce 06be b624 4c3e
000000e0: e97c 83be 788a 4d3d 0784 5dbd 1203 c23c
000000f0: 016e b73e 49ad 543e 81a7 a1bc f2d1 37be
00000100: 28e2 88be 61b0 8f3e 90b9 1cbe 8611 b43e
00000110: 9f11 9e3e f43d 4fbe 6f23 e2bd 6a8e 25bd
00000120: ef3a ea3d 2891 07be 3fe8 2f3e c4f0 89be
00000130: 648c 023d 0cca 853d 9a7f efbd ce71 1dbe
00000140: 52b5 e1bc e415 cf3e d59a c33e 1d32 8e3e
00000150: ccb9 07bd 1e28 13be 6e53 60bd af84 473e
00000160: 4cd1 8d3e 1deb 8a3e a137 b63e 48e5 63be
00000170: 726e 073e 3bd6 85bd 1cb8 4f3e d955 493d
00000180: c693 93be 5ac5 2a3e 613e 833e 6a67 78bd
00000190: 5fc1 8a3e 5fab 91be 821a 29be 9a37 28be
000001a0: 5282 56be e218 afbe f367 3ebe c312 95be
000001b0: 4faa 50be 2971 86be 5067 123e 9d92 a3bd
000001c0: a238 9a3e 51ce 98be 7294 963c fa1b 5a3e
000001d0: a574 813e dfeb edbd cf1f 81be f1bc 1bbd
000001e0: 7e4e be3e 8b4a 81bb 3fd8 c53e d5af af3e
000001f0: 21af 923d cde0 29be a569 89be 4c6b 073e
00000200: f247 d6be 6d80 abbe 6774 fcbd 26cc c1be
00000210: 6ba8 4c3e d888 82bd 7262 503e 464c 45bc
00000220: e2e1 39bd 2e20 b13d c05e 0dbe d337 623d
00000230: 7264 2b3e 14bc 4ebd 2ba9 fb3d ddec 093e
00000240: 5561 13be 4723 b7bd 456b 873e 83cf dfbd
00000250: cce1 55be 4569 e3bd abe3 49be d2eb 61bb
00000260: 9bc7 473d 50a6 45be d250 a93e 729c 873e
00000270: 86c3 db3c b194 b33e cafc 843e bfd2 3a3e
00000280: 62ad 8ebc ff88 4fbe 15e4 163e c34c e8bd
00000290: 04de 1e3e 5756 58be d1a3 7abe 9371 8a3c
000002a0: 2403 2cbd 9437 9fbe b035 b83e a6fa 75be
000002b0: 7f13 dcbc eee8 a0bc 68a0 873e 6167 9fbe
000002c0: 42dc a6bd 6653 9bbe 2313 af3e 846a 653d
000002d0: d3a4 4cbe 22ff bb3d 50cf 34bd 4b68 5bbe
000002e0: 96d4 5d3e f00c 4d3e d57a ecbd 1e32 57be
000002f0: 4e71 2f3c 38d4 a23d 9696 aa3e fce8 02bd
00000300: 24c0 b63e 59d8 343e ac26 1c3e 2b06 8c3e
00000310: 505b 03be c06c 4e3e 06be d83d d372 9f3e
00000320: 448d 1f3e a6bd 183d 15a8 e0bd 461f 4d3d
00000330: 3bdd 033e 51c1 4fbe 184e c6bd 87c9 633e
00000340: 2a86 eabd c132 09be 5238 95bc 68dd 4a3e
00000350: d097 353e f4ea c0bd 7d32 643e 712d ad3d
00000360: 78cf 16be 11aa 24be 8ba9 b33e 3437 b7bd
00000370: ddd7 34be 43cf 9abe e659 8b3e 1b6b 4ebd
00000380: 09d5 72be c662 943e df5f 3ebd e6f9 993e
00000390: 8593 08bd 0312 673b 9197 393d f833 8a3d
000003a0: e9ba c9be 9a6e 103e 99ec cb3d dca3 de3d
000003b0: abea 94be ee2a 0f3e 8cf8 d93e 4991 0cbe
000003c0: f8c8 d13e 01bf 873e b4b3 7dbe 5b02 883e
000003d0: 3fae 23be 764d cebd bb84 c8bd d787 b1be
000003e0: 5839 923d 72e2 8f3e 888a 50be cc5e b6be
000003f0: 6958 843e d74e 793e ab5d 943e c512 a6be
-0.19072264 0.20531623 0.0809892 -0.023879545 0.4086328 -0.14192563 0.28977406 0.27831984
-0.16145562 -0.3714042 -0.2724663 -0.429703 0.3945465 0.036816917 0.19967614 0.036014054
-0.15869631 -0.16050021 -0.15529981 0.21458362 0.19325314 -0.09331289 -0.1612463 -0.22684488
0.40897962 0.12684044 0.15717168 -0.1618441 0.1651805 -0.3847856 0.104655646 -0.1307207
0.20135733 -0.027730217 0.0267952 -0.3106515 0.08084412 -0.091488086 0.10425671 -0.22113135
-0.3590062 0.2667581 -0.36780128 0.064109586 -0.35071868 -0.11495625 -0.402021 0.22306296
0.22973932 0.3019576 0.27004537 0.2062035 -0.0805657 -0.24038465 -0.13164724 0.19935879
-0.25681236 0.050180882 -0.05408099 0.023683105 0.35826114 0.20769228 -0.019733192 -0.17951182
-0.26735044 0.28064254 -0.15305161 0.3516962 0.3087282 -0.20238477 -0.11041915 -0.04041902
0.11437022 -0.13238966 0.17178439 -0.26941502 0.03187217 0.06532678 -0.1169426 -0.15375444
-0.02755228 0.4044639 0.38204065 0.27772608 -0.033136174 -0.14370772 -0.054767065 0.19484209
0.27698743 0.27132502 0.35589316 -0.22255433 0.13225725 -0.06535002 0.20285076 0.049154136
-0.2882368 0.16676846 0.2563353 -0.0606455 0.27100655 -0.28451058 -0.16514018 -0.1642746
-0.20948151 -0.34198672 -0.18594341 -0.29115877 -0.20377468 -0.2625821 0.14297223 -0.07986949
0.30121332 -0.29844907 0.018381331 0.21299735 0.25284305 -0.116172545 -0.2521958 -0.038021985
0.3716926 -0.003945654 0.38641545 0.34313837 0.071623094 -0.16589661 -0.26838413 0.13224524
-0.41851765 -0.3349642 -0.123268895 -0.37851065 0.19986121 -0.06373757 0.20350054 -0.012042111
-0.045381434 0.08648716 -0.13805676 0.05522902 0.16737536 -0.050472334 0.122881256 0.13469262
-0.14392598 -0.089422755 0.26449028 -0.109282516 -0.20886916 -0.11104063 -0.19715755 -0.0034472835
0.048774343 -0.19301724 0.33069474 0.26486546 0.026826631 0.3507438 0.25974113 0.18244456
-0.01741666 -0.20267104 0.14735444 -0.11342766 0.1551438 -0.21126686 -0.24476553 0.01689986
-0.041995183 -0.3109709 0.3597846 -0.24021396 -0.026864765 -0.01964232 0.26489568 -0.3113356
-0.081474796 -0.30337065 0.34194288 0.056009784 -0.1998475 0.09179522 -0.04414302 -0.21426503
0.21663126 0.20024467 -0.11546866 -0.21015212 0.010708166 0.07950634 0.33318013 -0.031960472
0.35693467 0.17660655 0.15249127 0.27348456 -0.12827802 0.20158672 0.10583119 0.3114229
0.15581232 0.037290238 -0.10969559 0.050078653 0.12877361 -0.20288588 -0.09682864 0.22244845
-0.11451371 -0.13398267 -0.018215332 0.19811022 0.17733693 -0.09419814 0.22284885 0.08455933
-0.1472758 -0.160805 0.3509029 -0.08946076 -0.1766047 -0.30236253 0.27217025 -0.050395112
-0.23714079 0.28981608 -0.04647815 0.3007347 -0.03334381 0.0035258539 0.04531056 0.067481935
-0.39400414 0.14104691 0.09957237 0.108710974 -0.29085287 0.1398122 0.4257244 -0.13727297
0.4097364 0.26512912 -0.24775583 0.26564297 -0.15984438 -0.10073368 -0.09790941 -0.3467395
0.07139844 0.28102452 -0.20365345 -0.356192 0.25848702 0.24346481 0.28977713 -0.32436195

lstm.weight_hh_l0 f4 [32, 8]
00000000: 38f6 2e3e 3b02 d3bd 93e5 4dbe eed0 78be
00000010: 4139 8cbe 16c4 8a3e 66cb 663e 9fd3 533e
00000020: fb7e e5bd 1b16 263c 4aee 2dbd cf92 03be
00000030: 1ce7 683c b79f b53e cefb 5abe 6855 89be
00000040: 830f b6be 32b1 b53d 05f7 b6be 518f 86be
00000050: edd6 cfbe d79d 7e3d b21f c03e 41c0 8ebe
00000060: 7c26 7a3e fdf4 91be 808b b7bd d940 a53d
00000070: 2b09 89be fa9c 973e f88c 88be cd9f dfbd
00000080: 43a7 dc3e 8bd3 313e d4eb 4ebc 6dc8 4ebe
00000090: 9ca1 7a3e 8b01 de3e 19fe a8bd 6ca4 533e
000000a0: 8816 8ebd 87d1 38be 64c3 083e c971 533e
000000b0: 6348 943b 62e7 af3e 35dc 543d d648 93bd
000000c0: f3c4 dd3e 61d7 113e 37f2 bf3d b09f 1cbe
000000d0: a7ca 0d3e d9ce e13e 5a40 573e f6e0 21bc
000000e0: a235 913e a2fb 3a3e 2711 8ebe e72f b7bd
000000f0: e80b 743e fa28 2d3e 8582 a0be 3adf bcbe
00000100: 117a 67be 4c90 6dbe 1276 f3bd 6125 9cbe
00000110: 243b 7d3e 86fc cc3d 0302 933e 401e b23e
00000120: feb0 493e 3042 7dbe 5b63 46bd c643 8ebe
00000130: d685 e23d 35d9 1cbc 1578 41be b44b 383e
00000140: 0965 b73e ed5b 96bc 42c2 d7bd 3036 e9bd
00000150: 8a18 5abe 6c5b ae3e 3eb5 833e 9947 c5be
00000160: 22c1 653d 4967 c8bd c62b f8be 1205 b03e
00000170: facb 1f3e dd76 dd3e 222e 10be df42 71be
00000180: e69f 5bbe 3a77 22be e27f 5abe 4568 d63e
00000190: 13f4 33be 2eb6 083d 5701 cc3e 3bf8 303e
000001a0: bd36 dd3e e379 52be be85 21be a784 ad3e
000001b0: 9077 74be a3e2 15bc cba4 283d c848 b1be
000001c0: 6730 b63e 372c b13e 63a6 abbe 21b1 5bbe
000001d0: 83c6 663e 6682 aabb 70e3 5a3c 1735 d3bd
000001e0: bba2 103e ce85 4b3e b245 843c b618 86be
000001f0: 145d c43d ae1e 01be 0829 15be 1dfe c2bc
00000200: 7a4f 5f3e 84a5 4cbe 907b aabe 1f85 58be
00000210: b3eb e7bd f4f2 ca3e 2062 9dbd 3b27 1a3d
00000220: 91ee f33d f5dd 45be 7ebc 813e 25c9 bc3e
00000230: 70a9 e93d 5897 a83e c682 17be 681a 903e
00000240: c575 8fbd 29bd 443e 612e 45bd e373 fb3d
00000250: e7db c93e 048d 84be 8ee2 64be 0867 1a3e
00000260: 8eaa f8bd 6b55 823d f059 1fbd 2f93 3abe
00000270: 3096 b2be c156 0bbe eae3 bc3c 5e2f 83be
00000280: 40db f03d 21d5 c73d fac3 b23e 54b8 223e
00000290: f2c6 c6bd 210f 04be 7f42 b0be 69e3 82be
000002a0: b75f d53d 4c2c 93bd 32b1 b8bd a19f 83bc
000002b0: 3ef1 a9be 10ab de3e 54ab e4bc 4fcc c63d
000002c0: 6ebd c53e 4279 123b d364 113e 4b6a 3dbe
000002d0: 63c1 3f3e 7edd d1bd 7cfb f3bd 2254 b4be
000002e0: bda9 4f3d f0e9 223e b4f6 6fbe e753 c3bc
000002f0: 8071 af3e 94f5 9d3e 1b45 b0be c64f a53e
00000300: fbe6 21be b460 c83d 84fa 56be e5d7 cabe
00000310: 3561 693e a3e0 9f3e e953 6dbc 1785 90bd
00000320: 0cb4 92be 676d 713e 9f8a 18be d20c 91be
00000330: 5fac 83be cea4 44be 5862 d9bb 8de0 b53d
00000340: d265 a33d 0c4b 9c3e 0ad4 033e 2417 5d3e
00000350: a623 16be 708f c93e 5b93 813e 20eb 81be
00000360: 043d 033e 2c08 c53d b8c2 02be 5499 c2bd
00000370: b831 1cbc e6ef 833e c07b 2fbe c5f1 723d
00000380: ad13 ce3e 0e96 ca3e b7e6 093d d399 433e
00000390: 07e4 acbe cf30 323c b50d 20be 18c4 553d
000003a0: fa5a 4abe d269 83bd 9e6b 99bc 5447 c2bd
000003b0: 77c2 a6be b513 ba3d 9418 51bd 07db 9e3d
000003c0: 0806 ae3e 1dcf 163d 7b51 1f3e bbb7 cf3d
000003d0: 96ad 5f3d 134c ffbd 56db 87bd e086 bfbc
000003e0: cfd4 8ebd 3742 8ebe 0a3a 6c3e 955b ba3e
000003f0: 46a1 b03a 8044 06be 2382 323c aaaf bcbe
0.17086112 -0.1030316 -0.20107107 -0.2429845 -0.2738743 0.27102727 0.22538528 0.20686196
-0.1120586 0.010137106 -0.04246358 -0.12848972 0.014215257 0.35473415 -0.21385118 -0.26822972
-0.3555871 0.08871688 -0.35735336 -0.26281217 -0.40593663 0.062162247 0.37524182 -0.27881053
0.24428743 -0.28507224 -0.089621544 0.08069009 -0.26764807 0.2961195 -0.2667005 -0.109191515
0.4309636 0.17365853 -0.012629468 -0.20193644 0.24475712 0.43360552 -0.0825159 0.2066819
-0.06937891 -0.18048678 0.13355786 0.20648874 0.0045252307 0.3435622 0.05196782 -0.07191627
0.43314323 0.14242317 0.09372371 -0.15295291 0.13846837 0.44103125 0.21020642 -0.009880295
0.2836123 0.18260053 -0.2774746 -0.089446835 0.23832667 0.16910163 -0.31349578 -0.36889058
-0.22605158 -0.23199576 -0.118877545 -0.30497268 0.24729592 0.100091025 0.28712472 0.34788704
0.19696423 -0.2473228 -0.048434597 -0.27786082 0.110606834 -0.009573271 -0.18893464 0.17997628
0.3581927 -0.01835438 -0.105350986 -0.113872886 -0.21298423 0.34054124 0.25724214 -0.38531187
0.05609239 -0.09785325 -0.48470896 0.34378868 0.15605155 0.43254748 -0.14080098 -0.23560666
-0.21447715 -0.15865794 -0.21337846 0.41876426 -0.17573576 0.033376865 0.39844772 0.17282192
0.43205824 -0.20554309 -0.15773675 0.33890268 -0.23873734 -0.009148273 0.041172784 -0.3462584
0.35583803 0.34604046 -0.3352538 -0.21454288 0.22536664 -0.005203533 0.013359889 -0.103128605
0.14124577 0.19875261 0.016146515 -0.26190728 0.09588066 -0.1260936 -0.14566433 -0.023802811
0.21807662 -0.19985014 -0.33297396 -0.21144532 -0.11324253 0.39638484 -0.076847315 0.03763507
0.11910737 -0.19322951 0.2533912 0.3687221 0.11409271 0.32927966 -0.1479598 0.28145146
-0.07004885 0.19212784 -0.048139933 0.12277963 0.39425585 -0.25888836 -0.22352049 0.15078366
-0.12141906 0.063639484 -0.03890413 -0.18220209 -0.3488021 -0.13607313 0.023057897 -0.25622076
0.117605686 0.09757448 0.34915143 0.15890628 -0.097059146 -0.12896396 -0.34425732 -0.25564125
0.10418647 -0.07186183 -0.09018172 -0.016067328 -0.33191866 0.43489885 -0.027913727 0.097069375
0.38621086 0.0022350107 0.14198618 -0.18497579 0.18726115 -0.102473244 -0.11913201 -0.35220438
0.050698984 0.15909553 -0.23433954 -0.023843719 0.3426628 0.30851424 -0.34427723 0.32287425
-0.15810768 0.0978407 -0.20994002 -0.3961784 0.22790988 0.31226072 -0.014485338 -0.07056635
-0.2865299 0.2357689 -0.1489663 -0.28330094 -0.25717446 -0.19203493 -0.006634038 0.0888072
0.07978405 0.30526006 0.12873855 0.21590859 -0.14662036 0.39367247 0.25307736 -0.253747
0.12816244 0.09620699 -0.12769592 -0.09501901 -0.009533338 0.25768965 -0.1713705 0.0593126
0.40249386 0.39567608 0.033667292 0.19101648 -0.3376772 0.010875895 -0.15630229 0.052188963
-0.19761267 -0.06416668 -0.018728074 -0.09486261 -0.3257024 0.0908579 -0.05104883 0.0775662
0.33988976 0.036818612 0.15558426 0.10142466 0.054608904 -0.12465682 -0.06633632 -0.023379743
-0.06974184 -0.27784893 0.23069015 0.36397997 0.0013475798 -0.13112068 0.010895285 -0.3685277

lstm.bias_ih_l0 f4 [32]
00000000: a969 3cbe 606b a0be c394 223e 8fab 893e
00000010: c94e d53e d121 453d 380c 1bbe bdda e5bd
00000020: bebe 5f3e ecc0 bc3e 11d8 a33e 4079 1cbe
00000030: ad04 1b3e 1704 ad3e b207 1fbd 3836 6abe
00000040: 77f1 33be 8464 99be 9194 5dbd 68bd 70bd
00000050: 5bcf cbbe c759 c63e cbd6 23be 3137 743e
00000060: 4918 07be b8e4 33bd 75be 493e d64a 56be
00000070: 4f01 9e3e 60a6 bebd 70c6 e33e f117 bdbd
-0.18399681 -0.3133192 0.1587706 0.268887 0.4166167 0.048127953 -0.1514138 -0.11223362
0.21850106 0.36865938 0.32000783 -0.15280628 0.15138502 0.33792183 -0.0388257 -0.22872245
-0.1757258 -0.299595 -0.054096762 -0.058774382 -0.39806637 0.3874037 -0.15999906 0.23849179
-0.13192858 -0.043919295 0.1970156 -0.20926985 0.30860373 -0.09309077 0.44487333 -0.09233082

lstm.bias_hh_l0 f4 [32]
00000000: 4cb1 1a3e e2dc c3bd eb59 2f3e 9c21 47be
00000010: 9a76 133d 71e3 57be f0a2 9a3d a3db 003d
00000020: 767d 3d3e 5ade 613e 98ac 7cbe 1e23 2e3e
00000030: 9a92 903e 9b73 6fbe 70f8 d73e fc1f 603e
00000040: 4301 343e a794 c53e f10e 75be 6ea0 7ebe
00000050: 9026 5f3e cc42 263e 7b71 e1bd 0e04 37be
00000060: e6f2 81be 6788 963e 97ab 66be 9f35 c73e
00000070: a8e9 d43e 894f a33e 7a24 b83e bdc3 6b3d
0.15106696 -0.095636144 0.17124145 -0.19446415 0.03600178 -0.21082856 0.07550609 0.031459462
0.18504891 0.22057477 -0.24675214 0.17005584 0.28236848 -0.23383944 0.4218173 0.21887201
0.17578606 0.38589975 -0.23931481 -0.24865887 0.21792054 0.16236418 -0.11007973 -0.1787264
-0.2538063 0.29400942 -0.22526394 0.38908097 0.41584516 0.31896618 0.3596533 0.057559717

lstm.weight_ih_l1 f4 [32, 8]
00000000: 0bb5 fbbd f44a 993e 0248 b2be b138 c13e
00000010: 8e8a 953d 2c3f bd3d ba85 e7ba 55b0 673e
00000020: a553 763b 84a3 bd3e 37d4 79be a331 d7bd
00000030: 093b 04be 44fe c63e 54c7 97be ec46 123e
00000040: 3e92 e53e 580d 663d dc61 69bd 3cf7 893e
00000050: 6066 adbe daa9 11be a918 6f3e 89e7 ef3d
00000060: 3a4d 503e 8d22 a13e 2a0d 63be 5bee d2be
00000070: 031c 903e 3edf ffbd 7c3b b83e 82d8 ac3d
00000080: 6be9 8a3e 849a b73e d9ed b8be 7f2d fb3d
00000090: 8a86 ab3c eb91 593e 76db 77bd c2be c4be
000000a0: f4c9 163e ee0f 793e e22f b13e 6aa6 8bbe
000000b0: 30ac a2be b238 2e3e 2f42 74be ef85 9dbd
000000c0: 0d9e 493e 28f1 d6bd 1523 16be 600e 913c
000000d0: 1efe 303e 303e d33d 9304 533e fe4c 97be
000000e0: 18df 5cbe 981c a4be 0977 a53e fd71 b33e
000000f0: 08bb 3d3e 4ada 9dbd f088 a5be fd05 c63d
00000100: a81f 453e 740c a53e a269 77bd ae29 ad3e
00000110: 1938 8bbe fb90 debd 2a52 bc3e a36e 8abe
00000120: a819 e23e 21f5 a23e 06a7 d1be e9ef 3f3e
00000130: 0632 fe3d 61b2 bebd 3b68 853e 96e9 233e
00000140: f911 3dbe c115 06bd da51 ed3d b77d e53e
00000150: e82b 11be d1d5 4f3e 6497 9e3d f998 aebe
00000160: 5362 9b3e a3a8 6fbe 67aa 4e3c 88b2 c0be
00000170: 2aa3 2bbe 21c0 ac3d a565 233e 122a 8d3d
00000180: 1fdd 1f3d 8f6e e5bc 6fdd dd3c cbe0 f83d
00000190: c374 a7be bad3 873e b6e3 853d a97e 8dbe
000001a0: cdec cdbd b703 f03d 812f a7be cf85 aebe
000001b0: 1b16 543e 4082 5d3d 1cf1 213e 394a 88bd
000001c0: 70f4 f4bd 40e8 8e3e b28d 5cbc a190 a13d
000001d0: 686f 1bbe 7f06 3abd df23 943e 70a4 3a3e
000001e0: 4c08 e2bc 77c4 27be a0ce a73c 875b c9bd
000001f0: 0dc3 7dbe 76e4 dc3d bd72 6a3e 6f51 603e
00000200: e9da 20be dcdf c2be 50c3 193e 1ea4 a5be
00000210: a6c7 ce3e a0b9 f13d df81 8fbd f856 313e
00000220: 5d52 9f3e 7418 da3d ed9f 383e cb53 0dbe
00000230: 238d 79be 7982 843e 3fc1 0dbe e06f aabe
00000240: 7201 bfbe 0d1f 59bd b25a b83d a9c5 59be
00000250: de64 383e 806e 59be fec2 e9be b919 3dbe
00000260: 73d6 973e aac1 2bbe ec40 9a3e 3208 0e3e
00000270: 74e4 4d3d 72f0 043e f4ee 14be 3761 1e3e
00000280: cd4a 9cbb 91f3 d3bc d394 b2be 7de2 0e3e
00000290: 40cf 87be 870f b33e 2d3c 923d ebed b5be
000002a0: d4aa 9c3d 71f1 45bc b483 2c3e f543 60bd
000002b0: d53d 2b3e 6d1f c3be 1932 323e aabe 9ebe
000002c0: b4a3 bdbc 2c2b 383e c79b e2bc ca11 9d3e
000002d0: 7873 323d 3b12 403d 934d 4bbe 6829 dd3d
000002e0: 8fdb a43e b434 923c b2ef 583d e76b bf3c
000002f0: b54a 55be 8cba a03d 7746 953d 82c3 713e
00000300: c515 943e f488 d43e 63cb e2bc 9fbf 61bd
00000310: f0e9 4ebd 30b9 e53e cc8e 2bbc 40a7 29be
00000320: 9b2e 833e f9a3 2d3d 472a b03d 4752 fcbc
00000330: 5ce3 493e dc44 87be 9798 a43e d161 81bb
00000340: 2ace 5d3e 8875 083e 4fec a5be 1698 133e
00000350: ae1d 71be a0e4 bc3e 6553 cabc 2650 263e
00000360: 6c35 9d3e e524 afbe 3763 513e 2dff 20bd
00000370: ecb5 5c3e a6f0 043e ecca 86be 5d6b 843d
00000380: 7065 8c3e 25d6 bf3d e896 c3be 4b23 5d3d
00000390: e383 a8be b51a b83e 1e1a 46be af89 5ebc
000003a0: c7f0 253e eb4f 213c 9992 9f3d 26d8 b1be
000003b0: 753f aabb 24b4 823e 4945 2cbe 9e3b 0bbe
000003c0: fb3a 513e c694 ffbd b4e1 03be 0553 9b3e
000003d0: 07ef 1bbe 7056 60be 3ccf 9d3e 00de 81be
000003e0: e5dc 8bbe 25ca 5c3d 54c0 063e 791c d83e
000003f0: 5655 673e b358 d33d e837 85be 3d63 14be
-0.122903906 0.29939997 -0.34820563 0.37738565 0.07301818 0.09240565 -0.0017663755 0.22625859
0.0037586477 0.37038815 -0.2439736 -0.10507514 -0.12913145 0.38865864 -0.29644263 0.14284867
0.44838136 0.05616507 -0.05697809 0.26946437 -0.33867168 -0.1422495 0.23349251 0.11714084
0.2034196 0.31471673 -0.2217299 -0.41197476 0.2814637 -0.12493752 0.35982883 0.08439733
0.2713121 0.35860074 -0.36118963 0.12264537 0.020938177 0.2124707 -0.06051203 -0.38426787
0.14725477 0.24322483 0.34606844 -0.272754 -0.31771994 0.17013815 -0.23853372 -0.076915614
0.19689198 -0.10495216 -0.1466182 0.01770705 0.17284438 0.10314596 0.20607214 -0.29550928
-0.21569479 -0.32053065 0.3231738 0.35047904 0.18528378 -0.07707651 -0.32331038 0.09669111
0.19250357 0.32236063 -0.060403474 0.33820862 -0.27191237 -0.108674966 0.36781436 -0.27037534
0.441602 0.31827644 -0.4094774 0.18743862 0.12411885 -0.09311367 0.26056084 0.16007075
-0.18463887 -0.03273559 0.115878776 0.44822475 -0.14176905 0.20296408 0.07743719 -0.34101084
0.30348453 -0.23404174 0.012613869 -0.3763621 -0.16761461 0.08435083 0.15956743 0.0689279
0.039029237 -0.02800682 0.027083127 0.12152251 -0.3270627 0.26528722 0.06537573 -0.27635697
-0.10054932 0.117194586 -0.3265343 -0.34086463 0.20711558 0.054079294 0.15814632 -0.06654782
-0.11960685 0.27911568 -0.013461517 0.07888914 -0.15179217 -0.04541635 0.28933617 0.1822679
-0.027591847 -0.16383539 0.020484269 -0.098319106 -0.24781437 0.10785763 0.22895332 0.21906064
-0.15708508 -0.38061416 0.15015912 -0.32351774 0.40386695 0.11802983 -0.07007193 0.17318332
0.31117526 0.10649195 0.18029757 -0.13801496 -0.24370246 0.25880793 -0.13843249 -0.3328848
-0.3730579 -0.053008128 0.09001674 -0.21266808 0.18007228 -0.21233559 -0.4565658 -0.18466844
0.296558 -0.16773096 0.30127656 0.13870314 0.050266698 0.12982348 -0.14544278 0.15466772
-0.004769659 -0.025872977 -0.3487917 0.13953586 -0.26525307 0.34972784 0.07140384 -0.3553308
0.076497704 -0.01208149 0.16847116 -0.05475231 0.16722806 -0.38109913 0.17401923 -0.3100484
-0.023149349 0.17985219 -0.027662171 0.30677634 0.04356715 0.046892386 -0.19853811 0.10798913
0.3219876 0.017847396 0.052962966 0.023366882 -0.2082928 0.07848081 0.07288831 0.23609737
0.2892286 0.41510737 -0.027684873 -0.055114385 -0.05051607 0.4486785 -0.010471057 -0.16567707
0.25621495 0.042392705 0.08601814 -0.030800952 0.19715637 -0.26419723 0.32147667 -0.003948428
0.21660677 0.13326085 -0.32406852 0.14413485 -0.23546478 0.36893177 -0.024697969 0.16241512
0.3070482 -0.34207836 0.20448004 -0.039305855 0.21553773 0.12982425 -0.26326692 0.064657904
0.2742114 0.09367017 -0.3820107 0.053988736 -0.32913122 0.35957876 -0.193459 -0.013582631
0.1620513 0.009845714 0.07791633 -0.3473522 -0.005195553 0.2552806 -0.16823305 -0.13596961
0.20432656 -0.12479548 -0.12879068 0.30336776 -0.152279 -0.21907973 0.3082217 -0.25364685
-0.27316967 0.053903718 0.13159305 0.42209223 0.22591147 0.103196524 -0.26019216 -0.14490981

lstm.weight_hh_l1 f4 [32, 8]
00000000: a34f 6e3e 2d2d 8a3e 6593 88bd 143d c13e
00000010: 7eac 773d 2517 b23d 15e4 8a3d 5cf4 06be
00000020: 3e4b 98be cce4 073e 94d1 8abd dffd 353b
00000030: b9d6 a33d 52b7 94be f2ca 373e 293e 94bc
00000040: aaa1 28be fdc9 113e 5d0a cbbe b560 893e
00000050: fbe5 453e 2e6d dfbe 7e41 4fbe b328 963e
00000060: 409c 85be 850b 6e3e 3fdb 843e f722 89be
00000070: 41e6 0dbe 2603 a03e 5476 55be 3161 1e3d
00000080: 6a3d 36be 3281 8d3d bd48 babb 61e6 a83e
00000090: 5adc 0a3e 101e 103e 50c3 83bd f223 a33e
000000a0: 815e 6bbe 3a16 04be b924 fbbd d3b8 8fbe
000000b0: 39a0 2dbe 74de 003e 0fdd 8b3d 64b1 183d
000000c0: 2151 b7bd 428d 88be 122f 79be 0dc8 20be
000000d0: ccc1 d8bd 807e d43c 67e5 c83d 45da b63e
000000e0: d87b 44be e440 9cbe 2797 933e 4a43 94be
000000f0: 42c2 8abb b131 afbe e0c4 abbe 2a18 873e
00000100: f009 af3d ba42 0cbe 54b1 9bbe 2721 843d
00000110: 81c3 223e a1a8 d7be ce1f edbd bac1 2b3e
00000120: 28f3 fcbd c84f 333d 7293 5e3e 20f5 be3e
00000130: 7f9f d93e 9421 b73d 7de3 f7bd 55f7 793e
00000140: bef8 27bc a676 0a3f 0f19 27be 546c 42bd
00000150: 7aa7 c13e 9536 e6bb 0898 ca3d ab19 1fbe
00000160: f611 99bd 5dde 183d d6f4 4dbd b0b8 abbe
00000170: 2616 a63e bf32 693e 9664 7d3e 5179 6f3e
00000180: ae92 ae3d 1dad 853e b05e 12be 8bb7 713e
00000190: e820 633e 2918 edbe 93cc 95be 7bdc 393e
000001a0: 3c06 1bbe f8b5 cb3d d31c 57be e382 7dbb
000001b0: ed46 dd3c e181 6fbe e51d 78be 2c4c 09bb
000001c0: 89f1 9d3e 7740 243e 2d8b 333e 1e3f e3bd
000001d0: b033 113e fd38 6ebe 5e57 9d3e a165 33be
000001e0: 420d 70be d048 ab3e f6d6 98be c0ae 7b3e
000001f0: 92c3 943e bb6a babe fb4a 4f3e 2e6a 0d3e
00000200: 25ef 0c3c f864 6d3e 7e86 2d3d fed1 1e3b
00000210: 6126 e43c 127b 953c d018 18bc 8b51 7fbe
00000220: 167f 753e e070 983d b3d4 b8bc 28aa d53d
00000230: 6397 37bd dff8 96bc f77c 89be 5940 dcbd
00000240: 87b4 593e 4586 99bd 86fb c43d 313e f2bd
00000250: 85ca 82bc cd84 9a3d e6eb 493e 3e5d a3be
00000260: ddf7 91be 7e8e 783e 3b22 623e a0e4 863e
00000270: 2c15 a53c de3b 423e 414c fc3b 4b83 a23e
00000280: 48cd d0be 150a 0b3e d93e babe c1d0 a33e
00000290: 27bd 413e df85 493e e53d 6ebe e2a7 903e
000002a0: f5ac 883e d158 b03a 783f 09be b5da 87be
000002b0: b809 7fbe 760d 3e3e c9ec 92ba fe85 df3d
000002c0: 8cdd 9e3e 92d9 29be 2646 1d3e 7412 2cbd
000002d0: fb1f 673e e8ea 83be e932 a03e f117 84be
000002e0: d721 b3be 0c13 f4bd 61ad 263e 863e 7cbe
000002f0: 70f2 4abe 0548 03be 0e87 973e 9aee 3ebe
00000300: 4be4 65be 023c dc3e 3d66 fb3d 1f80 7f3e
00000310: 9b63 dcbd b123 b8be 8f2a cdbe 9cb8 43bc
00000320: 721f 0abd 38bd 2fbe 6f5d c0be 8be3 573e
00000330: ea4d 91bc 6ba9 febd 22de 0b3e 0374 353e
00000340: 801d d7be b280 e1bd f7c4 f93c fc60 523b
00000350: 2d1a d93e 1611 17be 6bac e8be 87d2 0f3e
00000360: 703e a3be 9ca0 013e 25a4 7d3d cdcb 82be
00000370: 50ce 803e 04de 9bbe b363 433e 924d a33e
00000380: 606f 4e3d dc2f 973e fd87 afbc 15a6 dd3e
00000390: 688a 8f3e 227d 49be b80f b2be 01d4 553e
000003a0: 0534 873d 74eb 3fbe deef 9bbe 7712 c6bd
000003b0: 4307 92be e146 3f3e f33d 8fbe e40c 65bd
000003c0: 4bf9 b2bc fb19 c93e eac3 aebe 4dde 993d
000003d0: fc2d 94bd 7721 83be 6797 9abe 690b 7cbe
000003e0: 2fb9 02bd a8d0 993e 3f41 843e 2aa0 8c3e
000003f0: 68ec 95be 023d 4fbe 29f3 033e 6931 d63d
0.23272566 0.2698759 -0.06668738 0.3774191 0.060467236 0.08695821 0.067817844 -0.13179153
-0.29744905 0.13270873 -0.06778255 0.0027769727 0.079999395 -0.29046112 0.17948511 -0.018096047
-0.1646792 0.14237209 -0.39656344 0.26831594 0.19326012 -0.43637985 -0.20239827 0.29327926
-0.26095772 0.23246582 0.25948521 -0.2678449 -0.13857366 0.31252402 -0.2084592 0.038666908
-0.17796865 0.06909408 -0.0056849406 0.32988265 0.1356062 0.14073968 -0.06433737 0.31863362
-0.22985269 -0.12899104 -0.12262864 -0.28070697 -0.16955651 0.12584859 0.06829273 0.037278548
-0.08951021 -0.2667027 -0.24334362 -0.15701313 -0.10583839 0.025939226 0.0980938 0.357134
-0.19187868 -0.30518258 0.28826258 -0.28957587 -0.004234583 -0.342176 -0.3354864 0.26385623
0.08546817 -0.13697329 -0.30408728 0.06451636 0.15894891 -0.4212084 -0.11578332 0.1677312
-0.12351066 0.043777257 0.21735933 0.3729639 0.42504498 0.089419514 -0.12103937 0.24410756
-0.010252176 0.54087293 -0.16318153 -0.04746659 0.37823087 -0.0070255497 0.09892279 -0.15537135
-0.07474129 0.037321437 -0.050282322 -0.33539343 0.32438773 0.22773264 0.24745402 0.23386122
0.08524071 0.26108637 -0.14293933 0.23605172 0.22180521 -0.46307495 -0.2925764 0.18150513
-0.15139097 0.09946817 -0.2100709 -0.003868275 0.02701136 -0.23389389 -0.24230154 -0.0020949943
0.3084834 0.16040216 0.1753356 -0.11096023 0.14179873 -0.23263927 0.30730718 -0.17519237
-0.23442557 0.3345399 -0.29851502 0.2457838 0.29055458 -0.36409554 0.20243447 0.13810036
0.008601938 0.23183048 0.04236459 0.0024234052 0.027850332 0.018247161 -0.0092832595 -0.2493345
0.2397426 0.07443404 -0.02256236 0.10432845 -0.044822108 -0.018429218 -0.26853153 -0.10754461
0.21260272 -0.07496313 0.09618287 -0.11828268 -0.01596571 0.07544861 0.19718894 -0.31907076
-0.28509417 0.24273106 0.2208337 0.26346302 0.020151697 0.1896815 0.00769952 0.31740794
-0.40781617 0.13578065 -0.36376074 0.31995204 0.18919812 0.19679974 -0.23265798 0.28253084
0.26694456 0.0013454204 -0.13403118 -0.26534048 -0.24906051 0.18559822 -0.0011209483 0.10914229
0.31028402 -0.16586903 0.15358791 -0.042009786 0.22570793 -0.25765157 0.3128884 -0.25799516
-0.34986755 -0.119176954 0.16277076 -0.24633226 -0.19819045 -0.12820442 0.29595226 -0.18645707
-0.22450368 0.43014532 0.1227536 0.24951218 -0.10761186 -0.3596473 -0.40071532 -0.01194587
-0.033721395 -0.17162025 -0.37571284 0.21082895 -0.017737348 -0.12434658 0.13658956 0.17720036
-0.42014694 -0.11010875 0.030489428 0.0032101264 0.42402783 -0.14752612 -0.45444044 0.14045154
-0.31883574 0.12658924 0.06192412 -0.25546113 0.25157404 -0.30442822 0.19081001 0.3189512
0.050399184 0.295287 -0.021427149 0.43290773 0.28035283 -0.1967664 -0.34777617 0.20881654
0.06601719 -0.18742162 -0.30456442 -0.09671491 -0.28521165 0.18679382 -0.2797695 -0.055920497
-0.021847388 0.39277634 -0.34133846 0.07513104 -0.07235333 -0.2561147 -0.30193636 -0.24613728
-0.031914886 0.30042005 0.2583103 0.27465945 -0.29281926 -0.20238116 0.12885727 0.10458643

lstm.bias_ih_l1 f4 [32]
00000000: cb15 fa3b fcba 84bb ca1b 25be 5a63 fbbc
00000010: 5e5c 8cbd c112 56be 9fd0 423e c955 5ebc
00000020: 5709 19be 0636 b63e 4ce2 9b3e b608 9fbe
00000030: 750c 293e d1d5 f53b 3e44 993e 30b0 633d
00000040: b0bd 8abe dec7 18be e430 7fbe 57fe 253e
00000050: 743f 45be ad50 8bbe 318a 84be 40e8 2e3d
00000060: 799b 8f3e 2c26 f7bb b47a cc3e 5d70 a23e
00000070: f7b8 59be b58f 9f3b 6cb3 cd3e d14f 0cbe
0.0076319925 -0.0040506106 -0.16123882 -0.030687023 -0.06853555 -0.20905592 0.19024895 -0.013570257
-0.14944969 0.35588092 0.30446088 -0.31061333 0.16508658 0.0075022955 0.29934877 0.055587947
-0.27097845 -0.14919993 -0.24920994 0.16210304 -0.19262487 -0.27209988 -0.25886682 0.04270196
0.28048304 -0.0075423922 0.39937365 0.3172635 -0.21261965 0.004869426 0.4017595 -0.13702323

lstm.bias_hh_l1 f4 [32]
00000000: 42b2 143e 5f73 68bd dc71 b53d 7610 f63c
00000010: 6d43 0e3e cd18 d1bc 33e8 34bd 861e e43d
00000020: 5469 2a3e f24f a13c 1ef5 32bd c45c 40be
00000030: 871f 47be 206d 97be 04cb a53e c4a4 93be
00000040: 5671 8ebe 3236 e03e fd83 90bb ae1a 703e
00000050: dc4a 963e 63ea 91bd a1b6 8fbd 4c88 413e
00000060: 2cdc be3e 6d3b 7a3e d0a4 0c3e 2c3d 913c
00000070: 3376 963e 6a46 b83e b90e 75be 1e68 6f3e
0.14521125 -0.05675065 0.088596076 0.030037146 0.13892908 -0.025524521 -0.044166755 0.111386344
0.16641742 0.019691441 -0.043690793 -0.18785387 -0.1944562 -0.29575443 0.3238145 -0.28836644
-0.27820843 0.43791348 -0.0044102655 0.23447677 0.29353988 -0.07124784 -0.070172556 0.1889965
0.37277353 0.24436732 0.13734746 0.017729364 0.29387054 0.35991222 -0.23931397 0.23379561

fc.weight f4 [3, 8]
00000000: c5f1 bbbe 2895 64bd 28e4 3bbe 5573 9abc
00000010: 1630 cd3c feb2 563e 5f56 9e3e 0c38 263e
00000020: 67af ef3e 360d f9be 8e20 e43e 7129 b53d
00000030: 9225 bebe fc33 c93d 1de2 a13e a7b1 dbbe
00000040: 1c64 81be 1c82 38be 0e97 20be cf13 733e
00000050: 373d ec3b 6631 d0bd 3088 3bbe 0d8e 91be
-0.36707893 -0.05580631 -0.18348753 -0.018853823 0.025047343 0.20966718 0.3092527 0.16232318
0.4681351 -0.48642892 0.44556087 0.08845795 -0.3713804 0.09824368 0.31617823 -0.42908975
-0.2527169 -0.18018383 -0.15682623 0.23738025 0.007209446 -0.10165672 -0.1831367 -0.2842869

fc.bias f4 [3]
00000000: 9a38 7b3d 2b1d 4bbd 3aff 32be
0.061333276 -0.049588364 -0.17480174
