checkpoint/best.pt (torch, 10303 bytes, 10 tensors)

lstm.weight_ih_l0 f4 [32, 34]
000000 1a d9 45 be d6 d7 8f be ab 64 a0 3e b1 1c f1 bd
       -0.19321099 -0.28094357 0.31326804 -0.117730506
000010 20 1b 12 be 9e 16 e4 be 1a bd ed 3d 76 51 7a be
       -0.1426816 -0.44548506 0.11608334 -0.24445137
000020 15 07 f5 3e cf 1b cd bd f8 12 72 be b2 81 54 3d
       0.47856966 -0.1001507 -0.23640049 0.0518815
000030 8d 62 94 3e ea d6 41 3d c3 d8 92 3d 71 ad 03 bf
       0.28981438 0.0473241 0.0717025 -0.51436526
000040 31 2f 02 3f 35 58 ab 3d 65 75 e9 3d a7 89 b3 bd
       0.5085326 0.083664335 0.11399344 -0.087664895
000050 7e f7 b1 3e ae 7e ad 3d ae ef 52 3e c7 93 5d be
       0.34759134 0.08471428 0.20599243 -0.21638404
000060 b5 c4 d6 3d 87 99 44 be 76 36 dd 3d cb 18 7c be
       0.10486738 -0.19199191 0.10801403 -0.24618833
000070 2b 48 76 3e cc 13 71 bd ce ff 14 be cf a7 90 be
       0.24050967 -0.05885677 -0.14550707 -0.28253028
000080 3c 4a 92 3e cb c4 d5 3d 29 1d 3f 3e 12 11 67 3e
       0.2857226 0.10437926 0.18663467 0.22565106
000090 47 13 eb 3e 22 91 a8 be 6f 9a af bc a9 d2 24 3e
       0.45913145 -0.32923228 -0.021435944 0.16095985
0000a0 73 8c 7a 3e 8d 00 64 be 05 ff e6 bd 2f 1e c4 be
       0.2446764 -0.22265835 -0.1127911 -0.38304278
0000b0 5b a7 0c be 18 51 a5 be bf 18 8d 3d 8a 69 13 3d
       -0.13735716 -0.32288432 0.068894856 0.03598932
0000c0 2c ef 6b bb db 78 bf be 6c 39 96 3e 25 ee dc 3d
       -0.0036000712 -0.37396893 0.29340684 0.1078761
0000d0 90 5b e6 bb 2d 1e 3c be 6b 6c 49 3e f2 9e d0 be
       -0.007029958 -0.18370886 0.19670264 -0.40746266
0000e0 d6 95 83 be a2 5e c0 bd d7 77 e0 3d 7a 37 2b 3e
       -0.25700253 -0.0939305 0.10960358 0.16720381
0000f0 28 ae 10 be be d7 d3 3c 57 e0 44 3e b0 29 bd be
       -0.14128935 0.02585971 0.19226204 -0.36945868
000100 a4 6e 82 3e 04 7b 17 be df 6a ef bd 29 1c ae bd
       0.25475037 -0.1479302 -0.11690306 -0.08501465
000110 53 15 1c 3e 2f b7 83 3e f0 60 f5 bb ac 02 0a be
       0.1524251 0.25725695 -0.0074883625 -0.13477582
000120 40 a6 77 3e 9a e5 2b bc 55 71 be be 98 ff 63 be
       0.24184513 -0.010491753 -0.3719584 -0.2226547
000130 d7 d6 aa be b9 4c 61 bd 8b 86 99 3e ef 48 3d 3e
       -0.33367035 -0.05500481 0.2998546 0.18484853
000140 08 76 bc be 3a a2 8c be aa 9c 9a be e1 58 2d be
       -0.368088 -0.2746752 -0.3019765 -0.16928436
000150 02 db 92 be 33 6d 6e 3d 49 a6 87 bd e1 c7 46 3d
       -0.28682715 0.05820961 -0.06623513 0.048530463
000160 45 0f 22 3c 46 b0 ef 3d 39 dd e5 3d c0 32 e8 3e
       0.009891336 0.11703543 0.112238355 0.4535122
000170 8c 39 42 be 92 67 b9 3e 73 87 54 3e 79 f4 ba 3d
       -0.18967265 0.3621183 0.20754795 0.09128661
000180 4d 82 03 3c cb fe e2 3e db f6 c1 be 85 02 f6 bd
       0.008026672 0.44335017 -0.37883648 -0.12012199
000190 44 43 90 be 8b 0d 92 be 87 78 fd 3d 52 f7 ac be
       -0.2817632 -0.28525957 0.123765044 -0.3378244
0001a0 e5 1b d7 3d 62 26 56 be 78 f3 59 3e 91 b5 d6 be
       0.10503367 -0.2091308 0.21284282 -0.419354
0001b0 5f 88 09 3e 56 76 20 3c 36 ae 46 3e e0 fd 58 bd
       0.13430928 0.0097938385 0.19402394 -0.05297649
0001c0 f5 dc c8 3d 30 55 91 bd 14 ed a1 3c 90 e9 0c be
       0.09807769 -0.07096326 0.019766368 -0.13760972
0001d0 2f 52 00 be d6 36 30 be 1e 74 96 bd fa ee 21 bd
       -0.1253135 -0.17208418 -0.07346366 -0.039534546
0001e0 df fc 13 3d 13 13 09 be ee 91 3f 3e e2 ff ea 3d
       0.03612983 -0.13386182 0.18708012 0.11474587
0001f0 3b 09 d0 bd 2f 52 63 3e 17 a2 13 be df 0c c1 3d
       -0.101580106 0.2219932 -0.14417301 0.09426283
000200 73 bf f8 bc 58 e3 09 be b0 19 83 be 10 c7 39 3e
       -0.030364728 -0.13465631 -0.25605536 0.18142343
000210 42 98 06 3e 06 51 8c 3d 1b 95 64 3d 70 c7 72 3e
       0.13144019 0.068513915 0.05580626 0.23708892
000220 04 66 ba 3e 9f dd 3c 3d ed ef 95 3c a9 59 1f 3e
       0.36405957 0.04610979 0.018302882 0.15561546
000230 4c 47 c9 3e 01 bf 2e 3e ec 17 7e 3d d8 a3 0a 3e
       0.39312208 0.1706505 0.062034532 0.13539064
000240 23 c4 2b bc d6 ed e9 be be 69 00 3e 1d 0c f7 3d
       -0.010483774 -0.45689267 0.12540337 0.12062857
000250 05 ea 0e bd ff ac 36 3e 72 c2 5c be 8e 58 b4 3e
       -0.034891147 0.1783943 -0.2155855 0.35223812
000260 ec d7 7c 3e 59 2f 02 3e 69 32 ec bd cf a8 c7 3e
       0.24691743 0.12713374 -0.115330525 0.38995978
000270 63 b2 5a 3e 7b c2 17 3e 2e a0 cd 3d ae a7 8d bd
       0.21357112 0.14820282 0.100403175 -0.06916748
000280 c6 81 f8 3d ca d4 e4 3c d9 49 51 3c 63 69 1e 3e
       0.12134127 0.027933497 0.012773954 0.1546989
000290 70 c9 6f be c7 0b 7c 3e 3f c5 9d be ab 0e 5b bd
       -0.23416686 0.24613868 -0.3081455 -0.053480785
0002a0 c9 42 72 bd 51 7c 9f 3c bc 65 8d 3e 0c 3c 1d 3e
       -0.059145723 0.019468458 0.2761668 0.15354937
0002b0 2b 10 9b 3e f0 be 8c be b6 8e 8b bd 63 30 04 bf
       0.30285773 -0.27489424 -0.06814329 -0.5163633
0002c0 ff 15 52 be 7c 3f 1a bd 81 35 62 bd 23 b2 3a 3e
       -0.20516203 -0.0376582 -0.055226807 0.18232016
0002d0 bc ae 3a be 27 a7 e9 bb 58 02 a9 3e 81 03 d9 be
       -0.18230718 -0.007130522 0.330096 -0.42385486
0002e0 64 93 e6 3d 35 66 78 be 57 64 a4 3e 95 b5 1a 3e
       0.11258581 -0.24257739 0.32107803 0.1510833
0002f0 a0 cb 52 be 9d 90 5b be 11 13 99 3e 5a bd 0d 3e
       -0.2058549 -0.21441884 0.2989736 0.13841763
000300 b2 de 98 be 50 0d 95 be 62 1a 23 3d 98 31 e1 be
       -0.29857403 -0.2911172 0.039820082 -0.4398315
000310 da ef b7 bd aa c6 5e be 7c 71 bb 3d ee b4 c0 be
       -0.08981295 -0.21755472 0.09152505 -0.37638038
000320 83 9c 0b bc 27 06 29 be c4 77 1d 3d e9 e2 8b be
       -0.008521202 -0.16506253 0.038444296 -0.27321556
000330 27 cd 46 bd 66 28 9d be ff 5a 96 3e 73 43 cf bd
       -0.048535492 -0.30694884 0.293663 -0.10120287
000340 ec 02 90 3e c6 8e 54 3e 93 db 43 be 7b 26 8a be
       0.2812723 0.20757589 -0.1912673 -0.26982483
000350 9d 8c b7 3e ac 1a 75 3c fc 86 dd 3e 11 3b 52 3e
       0.35849467 0.014959972 0.43267047 0.20530345
000360 d5 b9 93 be 92 8f 57 be 85 37 9e bd 28 1c a9 be
       -0.28852716 -0.21050861 -0.07725433 -0.33029294
000370 4a 2f 93 bd 24 9d 2c 3e b5 28 00 be c0 8b f5 3d
       -0.07186754 0.1685682 -0.12515529 0.11989546
000380 f4 7c 72 3d 61 e7 25 3e 03 b1 ea 3e ab 16 00 3e
       0.059201196 0.16201545 0.45838174 0.12508647
000390 f6 18 89 3e 85 ab 4b 3e d0 7a 01 be e5 b4 c2 bd
       0.26776856 0.19889648 -0.12644506 -0.09507159
0003a0 6c 10 15 3e 0a d9 ae be d9 3b 6b 3e f1 28 44 3e
       0.14557046 -0.34149963 0.22972049 0.19156243
0003b0 14 a9 7b 3e 85 02 46 be 66 01 bf 3e 20 c1 ae be
       0.24576217 -0.19336899 0.37305754 -0.34131718
0003c0 48 0e 7b 3e ae b2 54 3e 82 91 b1 3d 94 b9 97 bd
       0.24517167 0.20771286 0.086703315 -0.07408443
0003d0 1f 88 02 3e 08 a6 ec bd 6c 3e 7a 3e 39 8c 13 3e
       0.12747239 -0.115551054 0.24437875 0.1440896
0003e0 3c 6c 9b be d5 37 a5 3b 1d b6 63 be 7e 10 68 be
       -0.30356014 0.005042056 -0.2223744 -0.22662541
0003f0 0b 06 f6 3d de c0 e9 bd 0a e0 15 3e 8a 7d a8 3c
       0.12012871 -0.114137396 0.14636245 0.020567674

lstm.weight_hh_l0 f4 [32, 8]
000000 a7 c2 9d be f1 22 1e bc 9a 49 ef 3d 8d d0 91 3e
       -0.3081257 -0.009651885 0.1168396 0.28479424
000010 3c 15 9c be 73 7b 3f 3e b5 9a 5a be f6 18 2c bd
       -0.3048495 0.18699436 -0.21348079 -0.042015992
000020 34 f0 62 3e 66 db 5c 3e 7f e9 95 bb 82 f6 19 be
       0.22161943 0.21568069 -0.004574954 -0.15035442
000030 cb 7b 05 bd 77 69 40 be f5 1c 96 bd 99 03 11 bd
       -0.03258876 -0.18790232 -0.07329742 -0.03540382
000040 4c c1 d5 be 22 36 8c be ad 3f a3 3e d0 8a 83 bd
       -0.41749036 -0.2738505 0.31884518 -0.06422961
000050 32 da f0 3d 69 0a 27 3e ea e1 4a 3e 0a a8 b1 3e
       0.117603675 0.16312565 0.19812742 0.34698516
000060 68 62 07 3e b3 ce 1b be 96 38 ee bd 64 b1 2e be
       0.13221133 -0.15215568 -0.11631887 -0.17059857
000070 5c e9 c7 3e c4 71 26 be da f3 1d 3e fc b0 4b 3e
       0.39045227 -0.16254336 0.15425053 0.19891733
000080 b6 83 f5 be d7 9f 0d 3e 15 d6 56 bd 01 01 fa be
       -0.4795205 0.13830505 -0.05245026 -0.4882889
000090 9b f3 c6 3e 51 b4 98 be 34 76 3c 3e e8 9f f7 bd
       0.3885773 -0.2982507 0.18404466 -0.120910466
0000a0 5c 63 a9 be c8 88 81 bc e2 5f 6b 3e a3 63 7f be
       -0.33083618 -0.015812293 0.22985795 -0.24940352
0000b0 ce 66 3c 3e e5 3a 54 3d 05 ec c0 be ad b5 46 be
       0.18398592 0.05181398 -0.3768007 -0.19405241
0000c0 fd 40 c2 be eb 9b b6 3d ae 77 8a 3e 9b f4 e9 be
       -0.37940207 0.08916458 0.27044433 -0.45694432
0000d0 4d 67 6a bc be 3d 44 3e 73 e2 90 3e 90 97 1c 3e
       -0.014306855 0.19164178 0.28297767 0.15292192
0000e0 6d 6e 39 be 04 63 1e 3f 98 84 8d 3e ef c4 84 bd
       -0.1810853 0.61869836 0.27640224 -0.064828746
0000f0 22 45 77 3e e3 3c 62 bc 3f 64 6b bd e5 20 7e 3e
       0.24147466 -0.013808462 -0.05746865 0.24817236
000100 c8 f2 cd 3d 24 cb 7f 3d fd 24 02 be 71 24 09 bd
       0.100560725 0.06244959 -0.12709422 -0.03348202
000110 b1 5a 8f be 58 72 2e bb 08 85 43 bc 16 14 66 3e
       -0.2799888 -0.0026618447 -0.011933573 0.224686
000120 f9 f5 6a 3c dd ee 51 3e bf 9a 33 be bb 56 17 be
       0.014340871 0.20501275 -0.175395 -0.14779179
000130 2b 60 6e 3e 59 d5 77 be 11 d8 1e 3c da 50 3c be
       0.23278873 -0.2420248 0.009695069 -0.18390217
000140 4b ef 82 be d5 94 aa bc ba d8 c5 bd 4e 95 09 be
       -0.2557319 -0.020822922 -0.09660478 -0.13435861
000150 3f c0 ed 3d 85 27 f5 be 91 77 7f 38 82 df de 3e
       0.11608934 -0.47881714 6.0908093e-05 0.43529898
000160 d8 46 ac be ce 87 f7 3c 48 34 26 be dc 65 e9 3a
       -0.336478 0.030216124 -0.16230881 0.0017806846
000170 73 5d 88 be 3d 8e 5f 3e bb 6d 5d 3e e8 e6 eb 3e
       -0.26633796 0.21831603 0.2162389 0.46074605
000180 7b f2 1c bf 3b 90 8a 3b 9c 08 ca 3e 2e 47 9d be
       -0.61307496 0.0042286194 0.39459693 -0.30718368
000190 8d 83 60 3d 71 de b6 bd 6c f1 af bd e9 39 4b be
       0.054812957 -0.08929146 -0.085909694 -0.1984631
0001a0 a9 17 1c 3e a4 e9 0d 3e ca 54 70 3d e8 6b 96 3e
       0.152434 0.13858658 0.05867461 0.293792
0001b0 56 1a 7f 3e 70 46 b1 3d cb 74 ed 3d c3 82 37 3e
       0.2491239 0.08656013 0.11594542 0.17920975
0001c0 81 f1 cd bc fa 11 43 3c fb cb 61 3e 99 f5 8f 3e
       -0.025139572 0.011906141 0.22050469 0.28117064
0001d0 7f 43 f6 3e b6 48 ab be b1 b8 05 3f 12 00 8e be
       0.4809837 -0.33453912 0.5223494 -0.2773443
0001e0 a4 4c 5f 3d 44 8a 0f 3f d8 3a 6a be c1 f0 cd 3d
       0.05451645 0.5607035 -0.2287401 0.10055686
0001f0 b1 a2 ee bd 30 b5 2d 3e 79 20 fe bd 6b f4 17 be
       -0.11652125 0.16963649 -0.124085374 -0.14839332
000200 ff 5b 19 3f b6 b0 13 be 89 cf 2d 3e 50 44 85 bd
       0.59906 -0.14422879 0.169737 -0.0650717
000210 57 93 87 3e 0d 4c 1d be a0 f6 74 be 50 82 45 3e
       0.264796 -0.15361042 -0.23922205 0.19287992
000220 1c 97 8f bd ad 67 07 3d 01 ca 9b be 7d f1 3e 3a
       -0.07011244 0.033057857 -0.30427554 0.00072839094
000230 99 12 1c be 69 39 1d be f1 a0 b4 3d dd 59 44 3e
       -0.1524147 -0.15353931 0.0881976 0.19174905
000240 aa 85 bc be fa 3f 9d 3e 2e cf b6 3d 17 48 5c 3d
       -0.36820728 0.30712873 0.08926235 0.053779688
000250 c0 de 02 3f 6b dd a3 be 3c a8 5f be b9 ef 28 3d
       0.5112114 -0.32004866 -0.2184152 0.041244242
000260 2e b1 f1 3d 7c 52 94 bd e9 af 8d bd 36 84 13 3d
       0.118013725 -0.07242295 -0.06918318 0.036014758
000270 52 82 4d 3e e9 61 12 bc 71 d1 3b 3e f0 b9 3e 3e
       0.20069245 -0.008934476 0.18341614 0.18625617
000280 b8 9f a5 bd 28 b5 23 3e 08 97 6f 3e b5 d1 d5 bd
       -0.080871046 0.15987074 0.23397458 -0.10440389
000290 43 3a 86 bc 71 3c a9 be 13 d4 b7 3e 4f 97 0d 3e
       -0.016385203 -0.33053926 0.35903987 0.13827251
0002a0 18 b4 36 3e 65 4e 4e be 39 a1 80 3e 38 c2 c1 3c
       0.17842138 -0.20147093 0.25123003 0.023652181
0002b0 ba 78 37 be 21 33 86 3c 14 0f 7d 3e fe c9 de 3c
       -0.17917147 0.016381802 0.24712783 0.027195927
0002c0 dc d0 ec 3d e1 7b bb 3e 89 4b ab 3e ff 5a 64 3c
       0.11563274 0.3661795 0.33456066 0.013937711
0002d0 34 9c 87 3e 93 1f d3 be 72 80 d9 3e 54 5e 84 bc
       0.2648636 -0.41235027 0.42480808 -0.01615826
0002e0 39 93 15 3e 77 21 9d be 13 c0 53 bd c5 41 9f bd
       0.14606942 -0.30689594 -0.051696848 -0.077762164
0002f0 0b 59 34 3e c5 d9 7a be d3 f9 8f be 15 6c ca bd
       0.17612092 -0.24497135 -0.28120288 -0.09883896
000300 08 6f 78 be 5d fd fb bd 51 02 38 3e 8b 64 a8 3e
       -0.24261105 -0.123041846 0.17969634 0.32889208
000310 a9 ec 32 be 80 56 bd 3e 64 0f 8f be aa ca 41 3e
       -0.17473091 0.36980057 -0.2794143 0.18924966
000320 da 2b 49 bd da 08 0a 3d 6d f6 f4 3c f8 9c 32 3e
       -0.049114086 0.033699848 0.029902661 0.17442691
000330 02 64 09 be 78 0b 07 bf 66 eb 09 be b8 9a 0f bf
       -0.13417056 -0.52751875 -0.13468704 -0.5609546
000340 8a ab 52 bd 98 4f b1 3c 2f 63 c5 bd be 5c 17 3c
       -0.051433124 0.021644399 -0.096380584 0.00923842
000350 83 6b 6c 3e 69 2a 12 bf cf 21 ac 3d 96 5f d9 bc
       0.23087887 -0.5709596 0.08404886 -0.026534837
000360 d2 0c 3c 3e 73 58 d0 3d 21 5f 50 be 59 44 8a be
       0.18364266 0.1017312 -0.20348789 -0.2700527
000370 53 35 98 bd 7a e1 0b 3d cc 0c 10 bc 01 e8 f8 3e
       -0.07432046 0.034150578 -0.0087921135 0.48614505
000380 95 d0 59 bd 42 90 87 bd b1 14 4b 3e 65 e7 0e bf
       -0.053177435 -0.06619312 0.19832112 -0.5582183
000390 b0 65 f2 3d b7 6c 7c be 4c a1 9f be 82 99 d9 3d
       0.118358016 -0.24650846 -0.31177747 0.106249824
0003a0 c0 cd 8d be ee 76 e5 3e c6 aa b9 3d 3e af a2 3e
       -0.27696037 0.448173 0.090657756 0.31774324
0003b0 a6 51 90 bd ef 53 a1 3e aa 2c e2 bc 5d b8 68 bd
       -0.07046823 0.3150935 -0.027609188 -0.056816448
0003c0 b1 6f 82 be 19 24 9c 3e 5a 75 d8 bb af c2 9d be
       -0.2547584 0.3049629 -0.0066057863 -0.30812594
0003d0 ab 83 ed 3d 3f 2c 41 bc 2c 0f 9f 3e e6 30 91 bc
       0.11597379 -0.011790334 0.31066263 -0.017723512
0003e0 1b 2d 1f bc 9b ba d3 3e 90 2b ac bd f8 9a 83 3d
       -0.009715344 0.41353306 -0.084067464 0.06426042
0003f0 6c 76 0f 3e b2 40 8f be bc a8 14 be ff 97 28 3e
       0.14010018 -0.27979046 -0.14517492 0.16464232

lstm.bias_ih_l0 f4 [32]
000000 d1 de ba 3e 57 31 65 be 66 c5 a0 be f1 7a 30 3e
       0.3649812 -0.22382103 -0.31400603 0.17234398
000010 64 e5 23 be f4 e7 3f be 09 9a 07 3e 53 d4 68 3d
       -0.16005474 -0.18740827 0.13242353 0.056843113
000020 e4 0e 36 3e 4c e3 13 be 6c 97 83 be 16 f9 b1 bd
       0.17779118 -0.14442176 -0.25701463 -0.086900875
000030 c4 6c 63 be 4a eb 82 be ae b4 18 be 25 fa 5d 3d
       -0.2220946 -0.25570136 -0.14912674 0.054193635
000040 80 30 57 be 36 d9 9c be 08 c7 17 be cb 9c 94 be
       -0.21014595 -0.3063447 -0.14822018 -0.29025874
000050 85 7d 83 3e d6 17 a2 bd 9f fb b8 3e 5a 43 23 3c
       0.256817 -0.079147026 0.36129472 0.009964788
000060 82 c5 01 3e 2d a3 f0 bd aa b0 1f 3e bf 25 e3 bd
       0.12673 -0.11749873 0.15594736 -0.11091184
000070 23 51 f8 3d 68 66 fb bd 47 6a 89 3d 53 52 93 3e
       0.121248506 -0.12275392 0.06709724 0.28773746

lstm.bias_hh_l0 f4 [32]
000000 db 42 29 be ec 67 a9 bd de cd 6f be 18 43 02 be
       -0.1652941 -0.08271775 -0.23418376 -0.12720907
000010 a0 d3 95 3e 4d 29 85 be 13 ef d3 3e 03 ae 87 3d
       0.2926302 -0.26008072 0.41393337 0.06624987
000020 d9 f9 27 3e 28 eb 75 3e f8 c1 ca 3d fc 20 ce 3d
       0.16403903 0.24015486 0.09900278 0.10064885
000030 6b 94 bf 3e 23 d1 8f 3e 5b 87 12 3e 92 02 50 be
       0.3741792 0.28089246 0.14309447 -0.2031348
000040 4e 08 9f bd 33 05 68 be e3 b1 c0 3e 5f ba dd 3d
       -0.07765256 -0.22658233 0.37635717 0.10826563
000050 f2 83 09 3e 02 f5 a8 3e 0e 8c 44 be 60 ab 9f 3e
       0.1342924 0.32999426 -0.19194052 0.31185436
000060 88 4f e2 3e e0 e1 3c be 5d 61 53 be c1 20 51 3e
       0.44201303 -0.1844554 -0.2064261 0.20422651
000070 28 5a e7 3e 18 ca f5 3d 03 c3 b9 bd 56 6c 8c 3d
       0.4518597 0.12001437 -0.09070399 0.06856601

lstm.weight_ih_l1 f4 [32, 8]
000000 47 36 1f bf ac 36 2b 3c 7d 21 f4 bd b6 d5 87 3d
       -0.62192196 0.0104500465 -0.1192045 0.06632559
000010 af 7b 12 3e 5f 62 2b be 89 a4 56 be 4c 72 d4 3b
       0.14304994 -0.16736744 -0.20961203 0.006483352
000020 2d f3 0f 3e 7b 77 4e 3e 70 cf 61 3e 97 0c dc be
       0.14057608 0.20162766 0.22051787 -0.42978355
000030 d4 ca b6 3e fc 1b cf bd b1 a3 d3 3e 76 e1 1b 3e
       0.3570162 -0.101127595 0.41335824 0.15222725
000040 88 a5 72 be be 92 d9 3e 0c 86 33 3e fa 31 94 b9
       -0.23695958 0.42494768 0.17531604 -0.00028265995
000050 b1 4d b8 3e 6c 48 63 3c 7b 6a a2 3e ea 59 f0 bd
       0.35996774 0.013872247 0.31721863 -0.117359
000060 03 91 e6 be d5 ea 80 be 8d 17 e7 3e 8b ed b7 be
       -0.4503251 -0.25179163 0.45135155 -0.35923418
000070 7a 83 ee 3e c1 5d 5d be 20 91 81 3e fa 10 73 3c
       0.46584684 -0.21617796 0.25306034 0.0148355905
000080 9c a8 59 be 6a 75 90 3e e7 17 b8 3c ab e4 3d 3b
       -0.21255726 0.2821458 0.022472335 0.0028975408
000090 43 e4 2d 3e 73 5b 46 3e 29 bb 62 be cd eb 8d be
       0.16981606 0.19370823 -0.22141708 -0.27718964
0000a0 57 14 b8 bc 8b be ac be 19 50 ef be 64 ec c0 3e
       -0.022470636 -0.33739123 -0.46740797 0.37680352
0000b0 11 0a 50 3e dc be fa 3d 20 30 cb be 66 c8 6e be
       0.2031634 0.12243435 -0.39685154 -0.23318633
0000c0 7d 67 00 bd 32 95 c2 3d 22 74 bb 3e 90 01 eb be
       -0.031348694 0.09501113 0.3661204 -0.4589963
0000d0 0a a6 15 be 21 2b db be 75 6a a7 3e 42 a4 ef bd
       -0.1461412 -0.42806342 0.32698408 -0.117012516
0000e0 18 b8 00 bf f0 77 8e 3e 6c ef 9e 3d 76 b8 17 be
       -0.50280905 0.2782588 0.0776051 -0.1481646
0000f0 6e 38 ad be 0b 8a 5e 3e 60 39 f4 3d 7d e9 8d 3e
       -0.33832115 0.21732347 0.11925006 0.277172
000100 da 2d e6 be b8 e3 06 be d6 49 af be e8 3b 8f be
       -0.44956857 -0.13172805 -0.3423602 -0.27975392
000110 f9 df 53 bd 3c 02 3a be 65 db df be fe ac 87 be
       -0.05172727 -0.18164915 -0.43722072 -0.2649917
000120 13 b4 25 be 13 94 ae 3d 81 e5 22 3e f6 f2 a6 be
       -0.16181974 0.08524337 0.15907861 -0.3260724
000130 08 2f 3d 3c ae b7 03 be 2d 03 d4 bd 57 ac 1b 3d
       0.011546858 -0.12863037 -0.10352168 0.038006153
000140 ea da 8f be 4e 25 78 be 4f 6d 7d be 23 86 84 bd
       -0.28096706 -0.2423298 -0.24748729 -0.06470897
000150 ed ea d1 3e 21 43 a0 be 3e 20 bb 3e fb 19 2e 3e
       0.40999547 -0.31301215 0.36548036 0.17002098
000160 82 42 e3 be e1 cc 09 be bc 65 b3 3e 45 10 b8 3d
       -0.4438668 -0.13457061 0.35038555 0.08987478
000170 c4 87 ac 3e 61 50 58 3e 05 eb cf 3d 65 ab 8e 3e
       0.3369733 0.21124412 0.10152248 0.2786514
000180 63 d7 04 be 6d 95 b3 bd c0 d0 74 3d a1 ca 4c be
       -0.12972789 -0.08768735 0.059769392 -0.19999172
000190 7e 02 d7 3d 48 83 04 bd 72 83 b9 be 8c 13 30 3e
       0.10498522 -0.032351762 -0.36233097 0.17194957
0001a0 23 70 3f bd 4a 30 a1 3a 9b 5f 8b be 2f 72 94 be
       -0.0467378 0.0012297716 -0.2722138 -0.28993365
0001b0 b6 d5 55 3e db 9d 93 be b4 7b 7f 3e 72 9f 01 be
       0.20882306 -0.28831372 0.24949533 -0.1265848
0001c0 14 e6 a7 be 4b ce 98 3c 83 bc 75 3e 6d b4 f1 bd
       -0.32792723 0.018653056 0.23997693 -0.118019916
0001d0 74 b4 62 be 71 1c 54 be 37 3c a4 3e 59 64 27 3e
       -0.2213915 -0.20713975 0.3207719 0.16346873
0001e0 b6 a1 e8 be ec 15 ad 3e f4 6a 84 be 51 17 9a 3e
       -0.45435876 0.33805788 -0.2586285 0.30095914
0001f0 8f 40 22 3c 76 ad 37 3d fa 63 93 3c a7 9e 58 be
       0.009903087 0.04484316 0.017992008 -0.21154271
000200 aa 64 e2 3d 88 6f 21 3e a1 7b 7b 3e 3e f4 ef 3d
       0.110543564 0.15765202 0.2455888 0.117165074
000210 e8 19 80 be cd 70 b5 3e 86 e0 0c be 5a 9f 8d 3c
       -0.25019765 0.35437623 -0.13757524 0.017287899
000220 1c c0 e9 be 10 07 24 3e 49 05 35 be 7b 27 e9 bd
       -0.4565438 0.16018319 -0.17677797 -0.113844834
000230 ee 4f ce 3e 1c 78 d3 3d f2 45 e9 3e 91 e8 88 be
       0.40295357 0.103256434 0.45561177 -0.26739934
000240 bc 40 e1 be 89 8a 09 be a0 73 3f be 1a dc ff be
       -0.439947 -0.13431753 -0.18696451 -0.49972612
000250 0f 63 d7 3e 68 12 39 be 3e a2 a7 3e 30 a6 31 3e
       0.42067763 -0.18073428 0.32740968 0.17348552
000260 9c 93 de be 40 ab b7 3e 9a 6c 15 3e 49 9c 68 be
       -0.43471992 0.3587284 0.1459221 -0.22715868
000270 db d8 84 3e 6d 41 ca be a1 79 af 3e 5b 55 59 3e
       0.25946698 -0.3950304 0.34272483 0.21223967
000280 4d d2 32 3e 5e 75 ae 3e 0a 98 2d 3e 49 7d 12 3d
       0.17463036 0.3407392 0.1695253 0.035764012
000290 dc 32 24 3e 2c 7a e9 be eb 0c 87 3d 0d 39 92 be
       0.16035026 -0.45601022 0.06594261 -0.2855915
0002a0 42 1f 99 3e 3b c4 12 3e 94 d0 85 be 04 c2 9a be
       0.2990666 0.14332668 -0.26135695 -0.30226147
0002b0 a8 3a 9c 3d 43 61 89 be b5 58 ac bc 22 13 c8 3e
       0.07628375 -0.26832017 -0.021038393 0.39077097
0002c0 13 9a bb bd 09 67 5e 3e ca 1e c3 3e c1 b9 87 be
       -0.09160247 0.21718992 0.38109428 -0.26508906
0002d0 2c 9b 15 3d 0a 0e 2c 3e 6e e2 ab 3d e7 a7 14 3e
       0.036524937 0.1680223 0.083927974 0.14517175
0002e0 57 66 57 be e2 30 99 3e c5 2d 86 be 5d 6b 86 be
       -0.21035133 0.29920107 -0.26206794 -0.26253787
0002f0 56 84 b7 be 96 2b d7 be da 5f cd 3d 6b 1f 81 be
       -0.35843152 -0.4202544 0.10028048 -0.25219283
000300 f3 5b 87 bd f8 be 9c bd 46 5d b9 be 52 a4 b8 be
       -0.06609335 -0.07653612 -0.36203974 -0.36062866
000310 22 03 50 be 34 ef 99 3e a5 93 c3 3c d6 9c c1 3d
       -0.20313695 0.3006531 0.023874113 0.09453742
000320 d2 ea 0e bd 7b 2f ea 3d ea 25 a1 3e 53 bd 9b bd
       -0.03489191 0.114348374 0.3147424 -0.0760447
000330 ac 2b 67 3e 45 e2 31 3e 7c d0 c0 3d fd 7d 26 be
       0.22575253 0.17371471 0.09414765 -0.16258998
000340 9b 73 98 be a5 08 37 be e9 e2 df 3c d3 21 1b bd
       -0.297757 -0.17874391 0.027329879 -0.037874054
000350 a2 a9 56 be f2 78 a3 be 00 a6 b9 3e 9e 30 9d bd
       -0.20963147 -0.3192821 0.3625946 -0.076752886
000360 80 53 92 3d 8d 36 65 3d 05 96 b5 3e 0f ed d6 be
       0.071448326 0.055960227 0.35466018 -0.41977736
000370 aa 64 f3 3e 1b 6c 32 be 46 ca 14 be cf 08 cc 3d
       0.47537738 -0.17424051 -0.14530286 0.099626176
000380 75 36 19 bf f0 de 78 3d 70 a7 3a bc 67 08 01 be
       -0.5984872 0.060759485 -0.011392459 -0.12600861
000390 20 0e e9 3d 9c 11 21 3e 58 9a d7 3a c3 95 aa be
       0.11379647 0.15729374 0.0016449196 -0.33317384
0003a0 39 56 95 3e df 3d 85 be 88 08 e0 be ec 0d 40 3d
       0.29167345 -0.26023766 -0.4375651 0.046888277
0003b0 77 8c 80 be 53 69 3f 3e b2 3c ce be 63 4e ce be
       -0.25107166 0.18692522 -0.40280682 -0.4029418
0003c0 a3 e3 f0 3d 51 23 d8 3d 2e 9b 8d 3e b3 ca 9c 3d
       0.11762168 0.10553611 0.27657455 0.07655849
0003d0 31 07 fe 3d d6 38 86 be b1 a2 c2 3e 42 59 43 3d
       0.124037154 -0.26215237 0.3801475 0.047692545
0003e0 80 e1 42 bd 55 7f d5 3e db 14 8e 3e a6 64 53 be
       -0.047578335 0.4169871 0.27750286 -0.20643863
0003f0 7c 8f 1d be 38 7b b2 3e b3 ed 46 3e df cd e2 3c
       -0.15386766 0.34859633 0.19426613 0.027686058

lstm.weight_hh_l1 f4 [32, 8]
000000 2a 5c 33 3d 35 ad bd be b3 f8 c7 be 84 93 e3 be
       0.043789066 -0.3704621 -0.3905693 -0.44448483
000010 c0 e6 93 bd ec 1b 96 be 61 81 33 3e 75 75 89 bd
       -0.072217464 -0.29318178 0.17529823 -0.06711856
000020 d9 f6 97 3e ef ce 0b bd 21 b2 d8 3e 81 14 24 be
       0.29680517 -0.034132894 0.42323402 -0.16023447
000030 7a db 74 be 51 9d 22 be 83 00 97 3e 18 a5 ec bc
       -0.23911849 -0.15880324 0.29492578 -0.028887317
000040 fa 3a 31 be c7 83 80 3e 88 4d bd bd 51 0e ad 3e
       -0.17307654 0.25100538 -0.092433035 0.33799985
000050 37 90 9a be a8 9f 95 be 19 08 b4 3e 98 01 3f 3e
       -0.30188152 -0.2922337 0.35162428 0.18652952
000060 3b 81 e8 3d fd 2e 11 3f df 50 bf 3e 3b 5f 0f 3f
       0.11352774 0.56712323 0.37366387 0.56004685
000070 58 c8 2f 3c 42 32 2b 3e 56 94 ef 3d 87 f8 dc be
       0.010728918 0.1671839 0.11698215 -0.4315836
000080 82 5b 32 3e 7e 71 6a 3e 93 cc 1d 3e 77 93 a0 be
       0.1741772 0.22894856 0.1541007 -0.31362507
000090 50 7f 8c 3e 5e 9c 91 be 8a 5b 3d be 9e 4f 37 3e
       0.27440882 -0.2843961 -0.1849195 0.17901465
0000a0 6d fb 62 3e 9b fa 11 bd 9a 3a fd bd 76 81 c3 be
       0.22166224 -0.035639387 -0.12364693 -0.38184708
0000b0 c5 57 9e 3e 57 89 bb bd ff 58 cf be 0e 36 a9 3e
       0.30926338 -0.09157055 -0.40497586 0.33049053
0000c0 2f 66 dc 3d 4b b7 91 3e 0a 89 99 3e 89 d9 cd bc
       0.107616775 0.28460154 0.29987365 -0.025128143
0000d0 65 54 c0 be c5 a6 8d 3d ed b0 f0 3d 30 cc 2b 3b
       -0.37564388 0.069165744 0.11752496 0.0026214235
0000e0 85 24 d3 bd a5 4b 84 bd 5f 1d b3 be b1 e7 90 bd
       -0.103097 -0.064597405 -0.34983346 -0.07075442
0000f0 a3 bb 2b 3e 48 98 a0 be c3 72 7d 3e 59 90 a8 3e
       0.16770796 -0.3136618 0.2475081 0.3292263
000100 83 07 b1 3d 13 a6 10 be 5d 2e 64 3d b6 26 16 3e
       0.08644011 -0.14125852 0.055708278 0.14663205
000110 16 e0 da be b0 43 c0 be 3e a2 44 3e f4 f1 00 bd
       -0.4274909 -0.3755164 0.19202515 -0.031480744
000120 c9 07 91 3e 0b 3f bc 3d c8 ff 6a bd 6d 95 63 be
       0.28326252 0.09191712 -0.05737284 -0.2222497
000130 4d a8 d4 3c c9 fe 20 3d 5b ae 29 be f1 32 ba be
       0.025959158 0.039305482 -0.16570418 -0.3636699
000140 c0 a7 b5 bd c6 f1 80 be c5 dd bc 3e bd 05 83 bd
       -0.088698864 -0.25184458 0.36887947 -0.06397579
000150 8a 6a 00 bf ba 06 85 be c2 b5 ba 3e 91 fb 80 be
       -0.50162566 -0.25981694 0.36466795 -0.2519193
000160 7e bc 2d 3e f8 e5 94 3d db d4 99 3e cf d0 ae 3e
       0.16966435 0.072704256 0.30045208 0.34143683
000170 1a c7 db 3d 43 58 82 be ff 59 8a 3e 75 cb 16 be
       0.10731335 -0.25457963 0.27021787 -0.1472605
000180 61 c7 06 3e a2 b6 ff bd 24 90 dd bd ef 38 86 be
       0.13161995 -0.12486006 -0.10818508 -0.26215312
000190 db fc 5f be 47 96 10 be f7 6e bf be 25 77 aa be
       -0.218738 -0.14119826 -0.37389347 -0.33294025
0001a0 f3 81 77 3d 34 31 7a be 21 14 0e be 17 dc 81 be
       0.060426664 -0.24432832 -0.13874866 -0.25363228
0001b0 33 25 b5 be c0 ec 86 bd 0a 74 8d bd a6 c7 2a 3e
       -0.35379943 -0.06588125 -0.06906898 0.16677722
0001c0 d9 c4 9d bd 95 fc 4e 3e d9 d1 28 bd 11 e7 aa 3e
       -0.07703561 0.2021354 -0.04121575 0.33379415
0001d0 c5 a0 9a be f5 84 f6 bd 7c f9 1b 3e c2 91 77 3e
       -0.30200782 -0.12037078 0.1523189 0.24176696
0001e0 18 5e 1b be 25 4a 72 bb 8b a6 29 3d e3 56 4c 3e
       -0.15172613 -0.0036970463 0.041418593 0.1995502
0001f0 81 3a ee bd b6 a9 9d 3e 50 46 88 be 4c 6f 95 be
       -0.116322525 0.30793542 -0.26616144 -0.29186475
000200 97 19 0a 3e d5 55 fc 3c ef 09 51 3c d6 89 60 be
       0.13486324 0.030802647 0.012758716 -0.2192758
000210 20 7d b0 be 26 22 27 3e 7f f7 bc bd 9f f1 70 3c
       -0.34470463 0.1632162 -0.09226894 0.014706044
000220 b2 9e a8 3e 34 0f e9 3e 05 9f 1d 3e 87 13 a8 3e
       0.32933575 0.45519412 0.15392692 0.32827398
000230 17 ad 81 bd 0e cf d3 bc 82 1d 01 3e ed 9b 47 be
       -0.063318424 -0.025855567 0.12608913 -0.19493075
000240 3d 4c 9a 3e db 67 c4 3e a8 23 db bd 6d b7 b9 3e
       0.3013629 0.38360485 -0.1070016 0.36272755
000250 6b b2 89 be 97 f9 92 bd f0 fd 90 3e 56 6a 05 be
       -0.26893935 -0.07176512 0.2831874 -0.13028845
000260 65 2d 87 be 49 6c dd 3e 0c f5 03 3f 38 a3 a3 3c
       -0.2640182 0.43246678 0.51545787 0.01997529
000270 50 86 2b bd 39 f0 5c be 36 c5 0a be 2e 7e 79 be
       -0.041876137 -0.21576013 -0.13551793 -0.2436454
000280 cc 83 a7 3e be 3b a1 be 0a 8a 8c be 73 dd 90 3e
       0.3271774 -0.31490892 -0.27449065 0.28293952
000290 d2 3f b4 be df 61 37 be 35 2a c4 3d 53 dc f7 3c
       -0.3520494 -0.17908429 0.09578363 0.030256426
0002a0 07 f2 be 3e ff 43 99 3e e9 be 65 3e 16 05 8e bc
       0.37294027 0.2993469 0.22436108 -0.01733641
0002b0 df 58 2e 3e af 2f c5 be 8a 63 70 3d c5 9d c9 bd
       0.17026089 -0.38512942 0.058688678 -0.09844545
0002c0 3f 34 7b 3e de 93 5a 3e 89 75 a8 3e dd ed a8 3e
       0.24531649 0.2134547 0.32902172 0.32993975
0002d0 4e cc 22 be d3 db b0 3c c3 54 b1 3c f4 62 a0 be
       -0.15898249 0.021589195 0.021646863 -0.31325495
0002e0 e7 df 31 3b 84 3c 9d 3e 8d c4 8f 3e ad 31 c7 bd
       0.0027141513 0.30710232 0.28079644 -0.09726272
0002f0 be 49 d5 3e f4 7a d1 bd b1 92 2a 3e f5 de 66 3e
       0.41657823 -0.102285296 0.16657521 0.22545989
000300 50 fa 89 be b4 0c 82 3d 9b 47 d5 be 9a 3d 5c be
       -0.26948786 0.06350079 -0.41656193 -0.21507874
000310 96 f2 f7 bd 96 f0 c5 be bf b1 27 be a1 37 8f bc
       -0.121068165 -0.38660115 -0.16376399 -0.01748258
000320 1e a4 36 3e 19 20 98 bd 7a ba b7 bd 05 38 aa bd
       0.17836043 -0.07427997 -0.089711145 -0.08311466
000330 b3 a9 00 bf fe 7d 1e be 53 c6 13 3e a1 57 28 be
       -0.5025894 -0.1547775 0.14431123 -0.16439678
000340 0c 41 c7 3e e9 97 95 3e 9e e0 ef 3d e5 ff 99 3e
       0.38916814 0.2921746 0.11712764 0.30078045
000350 51 e4 c1 3d 37 01 58 bd 95 9e 5c be 9d c5 fd be
       0.09467376 -0.052735534 -0.21544869 -0.4956483
000360 15 58 b8 3e 9e 2c 55 b9 1f 5d 70 3e af 79 ee ba
       0.360047 -0.00020329884 0.23473023 -0.0018194224
000370 88 7e a2 bd b5 f3 cb be bc 95 b9 3e d2 cc f4 be
       -0.0793429 -0.3983437 0.3624705 -0.47812515
000380 96 a1 83 3c 5d 85 02 be 37 00 8d be d1 70 a5 3e
       0.016068261 -0.12746187 -0.27539226 0.32312635
000390 ac 44 57 be 04 a2 89 3b bd 75 14 3e f5 4c 1b be
       -0.2102229 0.004200222 0.14498039 -0.15166076
0003a0 7f b4 1d 3e ea b8 95 bd 40 8b 07 be e1 8f c0 be
       0.15400885 -0.0731066 -0.13236713 -0.3760977
0003b0 22 a7 8c 3e 4d 60 90 3d f5 71 30 bd be b4 4f 3e
       0.27471262 0.07049618 -0.043077428 0.20283791
0003c0 a7 0a e6 3e f1 72 d3 3e 22 6c a5 3e f5 59 17 3e
       0.44930002 0.4129863 0.3230906 0.1478041
0003d0 7c ca 69 be 72 b1 84 3e c3 dc 94 bc 1b 5a 2a 3e
       -0.22831148 0.2591663 -0.018171674 0.16635935
0003e0 42 8a b1 be b0 b6 93 3e e7 bf 12 be db de a7 3e
       -0.34675795 0.28850317 -0.14331017 0.32787213
0003f0 31 e7 f5 bd 98 6f 77 3e e9 3e 70 3e 3c 38 9d be
       -0.12006987 0.24163663 0.23461498 -0.30706966

lstm.bias_ih_l1 f4 [32]
000000 0d 87 bf bc 79 46 0e be 1c 4a 48 3e 63 b3 c1 3e
       -0.023379827 -0.1389407 0.1955952 0.37832174
000010 35 e8 bc bd 1a ed dd bc a5 ca 8b 3c 38 eb ad be
       -0.092239775 -0.027090598 0.017064402 -0.3396852
000020 17 25 c0 3d 85 7d 1a 3e 8b 3f 6a bd 94 65 08 be
       0.09382074 0.15086944 -0.057189506 -0.13319999
000030 d8 b7 d1 3d c2 07 e2 be ab 5e 42 3e b4 e4 34 bd
       0.102401435 -0.44146544 0.18981425 -0.04416342
000040 55 22 ee 3c 1a 10 92 3e 41 3c fa bd c3 a2 08 3d
       0.029069105 0.2852791 -0.12218524 0.033358347
000050 83 23 9e be 98 8c 45 be 36 f1 a8 3e 67 bf bf be
       -0.30886468 -0.19291914 0.3299653 -0.37450716
000060 23 25 22 be 82 e7 31 3e 2e 00 9a 3e af 7c 2f be
       -0.15834479 0.1737347 0.30078262 -0.17137407
000070 b1 9f 60 3e c1 9d d9 be 64 d9 48 be 7a 59 93 be
       0.21935917 -0.4250317 -0.19614178 -0.28779203

lstm.bias_hh_l1 f4 [32]
000000 1c c7 db 3d 0d 14 26 be 6f 05 0c 3d 60 4e 41 be
       0.107313365 -0.16218586 0.03418487 -0.18877554
000010 0e fb 35 3e d6 7a 8b be e9 f4 09 3e cf 44 85 3e
       0.17771551 -0.27242154 0.13472332 0.2602906
000020 32 ab 05 3e 02 e9 e7 3c 0d ed 7a 3c e1 77 fe bd
       0.13053587 0.028309349 0.015315306 -0.12425209
000030 8f 49 fe bd 07 2b 46 3e cd 47 90 3c 31 32 69 3d
       -0.12416374 0.19352351 0.017612362 0.056932632
000040 8c 86 a2 3e 51 8f 79 be 43 ba 07 3e fe 34 74 3e
       0.31743276 -0.24371077 0.13254647 0.2384834
000050 2d 82 52 3d 62 4b 7b bd 2c cd 3b 3e b6 ca 95 be
       0.051393677 -0.061351188 0.18339986 -0.2925622
000060 ba 7e db 3c 01 e3 8d 3e 87 3f 4a bc c5 ec a0 3e
       0.026793826 0.27712253 -0.012344248 0.3143064
000070 43 77 0c bd cc 92 71 3e 42 29 99 3e 05 de 89 3e
       -0.034293424 0.23591155 0.2991429 0.269272

fc.weight f4 [3, 8]
000000 c0 ed 74 be c9 f8 81 3e 45 a2 d2 3d a6 f3 f0 bd
       -0.2391882 0.2538512 0.10284857 -0.11765222
000010 0f a8 a2 3e b8 7f 53 bd f0 4f 55 3e 52 d2 0d 3e
       0.31768844 -0.051635474 0.20831275 0.13849762
000020 c8 17 6d be 71 15 11 bf 27 cb bf be c5 b9 f1 be
       -0.23153603 -0.5667334 -0.3745968 -0.47212043
000030 d7 44 24 3e cf e8 0c bb 9b 19 c3 be a9 b8 ed 3d
       0.16041885 -0.002150107 -0.38105473 0.11607487
000040 23 4f aa bd e1 ba 18 bb 0c f6 56 bc 5d 39 c8 3e
       -0.083158754 -0.0023304748 -0.013120186 0.39106265
000050 87 26 29 be fc e1 b3 bd 12 15 aa 3d a1 54 48 be
       -0.16518603 -0.087833375 0.083048 -0.19563533

fc.bias f4 [3]
000000 ae 3b 88 3d 00 c4 8d be 98 ae 02 be
       0.06652008 -0.276886 -0.12761915
